IDS/best_model_cnn.pth (torch, 103054 bytes, 8 tensors)

conv1.weight f4 [64, 1, 3]
0.09525878 -0.8605584 -0.9387894 -0.098403 1.0663601 0.44743085 0.013010144 -0.5291989
0.2123772 -0.09042388 -1.1194348 0.33343855 0.084173724 0.9360176 0.60858595 -0.22002167
-0.11039391 -0.51443857 0.00055762293 1.082799 -0.09280532 -0.0031676544 0.85265523 -0.12685159
0.03739745 -0.63007915 -0.7029427 -0.10189895 -1.0339658 -1.0337436 0.02351617 -0.8835005
-0.9854834 -0.0031297964 -0.91485155 -0.91527766 0.06970634 1.0954105 0.71518 0.18830624
0.39507902 -0.12662196 -0.37194768 0.055206135 -0.30435002 0.07220657 -0.3354685 -0.58050245
-0.21396427 -0.39744774 -0.5342233 -0.1896553 -0.14002922 -0.16241485 0.0027634606 0.64128435
1.2017319 0.1598042 -0.19436866 0.5975356 0.11033816 -0.2963698 -0.584617 0.046774477
0.9016297 0.50453675 -0.39742827 -1.1628271 0.3734075 -0.14496249 -0.040924024 -0.4914067
0.04084511 -0.07571759 -0.60056317 -0.55093575 -0.40976036 -0.3745091 -0.66451114 -0.09123015
0.6314539 0.0524776 -0.30444494 0.15205956 0.15875913 0.08332228 -0.48523676 -0.0026437093
0.862291 0.5012877 0.060799696 0.91572106 0.48695374 -0.6043754 -0.6784461 0.6731797
0.18769334 0.59190685 0.32644248 -0.53751147 -1.2779058 0.5156871 0.04753199 -0.648912
-0.72414213 -0.47543868 -0.75486946 -0.6176318 0.10250288 -0.13219206 1.0686328 -0.0028603976
0.96957 0.60007674 0.010504554 0.88770854 0.3800239 -0.00012094419 -0.26908156 -0.15376212
0.03385783 -0.66485626 -0.74174064 0.016223967 -0.5111435 0.39460385 -0.0036427535 1.0011829
0.49624702 -0.003371005 0.24942401 1.3197312 -0.00215159 -0.88841695 -0.8885558 0.11172291
0.8922855 -0.36982638 0.12496974 0.0933785 1.0667027 -0.050921313 0.9585868 -0.040434156
-0.026744291 -0.5466518 -0.5466306 -0.25998202 0.0352757 -0.54817885 -0.4893605 -0.85675347
-0.48871815 0.19914405 0.083344385 -0.30710697 -0.0019468397 1.1990693 0.65256 -0.60364676
0.04583886 0.6997099 0.22801934 0.9844849 -0.14495802 0.13826571 0.22779399 0.7437913
-0.51318467 -1.158432 -0.74751776 -0.00089147565 0.03811654 1.2550112 0.053134862 0.63032293
1.1754893 -0.18307006 -0.8270135 -0.70643944 -0.34004888 -0.38380918 0.10063746 0.10421729
0.16738977 -0.11801977 -0.0031249847 0.70289075 1.0704353 -0.00010889251 -0.45015576 0.73737746
00000000: 0917 c33d 8e4d 5cbf 8154 70bf 8387 c9bd
00000010: 7d7e 883f a815 e53e 8028 553c 9479 07bf
00000020: 6979 593e 2830 b9bd a449 8fbf 75b8 aa3e
00000030: 4663 ac3d d99e 6f3f 4acc 1b3f 5c4d 61be
00000040: 3416 e2bd 3fb2 03bf 712d 123a 2899 8a3f
00000050: b710 bebd 6c98 4fbb 9d47 5a3f 62e5 01be
00000060: 122e 193d de4c 21bf 0ef4 33bf 66b0 d0bd
00000070: fe58 84bf b651 84bf fca4 c03c 172d 62bf
00000080: a448 7cbf 451d 4dbb b633 6abf a34f 6abf
00000090: 33c2 8e3d 6936 8c3f 0916 373f 5ad3 403e
000000a0: cc47 ca3e 30a9 01be ed6f bebe d41f 623d
000000b0: c4d3 9bbe 0ae1 933d 87c2 abbe cf9b 14bf
000000c0: 7319 5bbe 457e cbbe dcc2 08bf 0035 42be
000000d0: d263 0fbe 1450 26be 2d1b 353b 362b 243f
000000e0: 5ad2 993f b6a3 233e 9408 47be 18f8 183f
000000f0: f9f8 e13d c8bd 97be 76a9 15bf 9896 3f3d
00000100: 34d1 663f 5229 013f b87b cbbe 85d7 94bf
00000110: 452f bf3e 0c71 14be f39f 27bd a999 fbbe
00000120: 344d 273d d311 9bbd 82be 19bf 200a 0dbf
00000130: 1ccc d1be a8bf bfbe 671d 2abf dfd6 babd
00000140: f6a6 213f c0f2 563d 35e0 9bbe 80b5 1b3e
00000150: c191 223e dfa4 aa3d f470 f8be 1542 2dbb
00000160: 1abf 5c3f 6454 003f 1a09 793d b26c 6a3f
00000170: 0052 f93e 59b8 1abf a5ae 2dbf 8155 2c3f
00000180: af32 403e 3587 173f 7823 a73e 5a9a 09bf
00000190: 6b92 a3bf 1204 043f e7b0 423d 191f 26bf
000001a0: 6161 39bf b36c f3be 203f 41bf 1e1d 1ebf
000001b0: 08ed d13d 5b5d 07be f6c8 883f 8275 3bbb
000001c0: bd35 783f a19e 193f 4b1b 2c3c de40 633f
000001d0: 7e92 c23e 6ba3 fdb8 0fc5 89be d173 1dbe
000001e0: 82ae 0a3d 0534 2abf b7e2 3dbf 20e8 843c
000001f0: 4dda 02bf 8409 ca3e 43bb 6ebb c326 803f
00000200: 1714 fe3e 14ec 5cbb 0269 7f3e f4ec a83f
00000210: b101 0dbb 4b6f 63bf 6578 63bf fbce e43d
00000220: d36c 643f e259 bdbe 23f0 ff3d 3a3d bf3d
00000230: b789 883f de92 50bd f265 753f 499e 25bd
00000240: d816 dbbc 5ff1 0bbf fcef 0bbf 5d1c 85be
00000250: 417d 103d 7355 0cbf 768d fabe 3254 5bbf
00000260: 4439 fabe 6bec 4b3e 76b0 aa3d 203d 9dbe
00000270: 1a2d ffba 1a7b 993f 2c0e 273f 9888 1abf
00000280: 87c1 3b3d 3020 333f e77d 693e 3407 7c3f
00000290: e06f 14be 8795 0d3e d442 693e 1b69 3e3f
000002a0: 1260 03bf 8047 94bf 535d 3fbf ebb1 69ba
000002b0: 1720 1c3d 35a4 a03f f1a3 593d d85c 213f
000002c0: 6f76 963f b876 3bbe 28b7 53bf 37d9 34bf
000002d0: e31a aebe a382 c4be 031b ce3d e06f d53d
000002e0: 3968 2b3e 59b4 f1bd 8bcc 4cbb a6f0 333f
000002f0: 0604 893f 395d e4b8 d17a e6be c5c4 3c3f

conv1.bias f4 [64]
0.4948736 0.04040756 -0.5986853 0.1613461 0.080089055 0.29979438 -0.055777334 0.061396647
0.4794322 0.6264564 0.3559147 0.26067674 0.07605922 0.0893241 0.17484811 -0.73795944
0.43905675 -0.49895278 -0.037783362 0.5772419 -0.67997444 0.078105316 0.5735033 0.22645193
0.6280161 -0.5673471 0.26987156 -0.5927189 -0.7955233 0.07132092 0.079999335 0.1442585
-0.35226035 0.5140557 0.1352659 0.35994956 0.06919566 0.070964165 -0.2521319 -0.31771323
0.25272498 0.33732313 0.004476949 0.021434603 0.29678607 0.07520511 0.21097803 0.07004665
0.27984953 0.43843877 0.37400854 0.050926097 0.0051224115 0.30071324 0.04576817 0.53929603
0.6803762 -0.00012251205 0.075535245 0.54771495 0.50355107 0.100504085 0.076113716 0.15505603
00000000: 1360 fd3e 6682 253d 7143 19bf e937 253e
00000010: bb05 a43d a67e 993e c676 64bd 0d7b 7b3d
00000020: 2378 f53e 725f 203f 743a b63e 6c77 853e
00000030: f0c4 9b3d 8eef b63d 620b 333e e9ea 3cbf
00000040: 0ccc e03e bd76 ffbe bac2 1abd 20c6 133f
00000050: ce12 2ebf aef5 9f3d 1dd1 123f 04e3 673e
00000060: aac5 203f a93d 11bf 9b2c 8a3e 6dbc 17bf
00000070: 6aa7 4bbf b410 923d b1d6 a33d 80b8 133e
00000080: 785b b4be 2899 033f 2583 0a3e 4f4b b83e
00000090: 74b6 8d3d a955 913d 6f17 81be 4fab a2be
000000a0: 2b65 813e 9eb5 ac3e 5fb3 923b 9f97 af3c
000000b0: 58f4 973e 2305 9a3d a00a 583e 9e74 8f3d
000000c0: 7048 8f3e 0c7b e03e 0c7e bf3e e297 503d
000000d0: e7d9 a73b 16f7 993e 6877 3b3d 4e0f 0a3f
000000e0: 222d 2e3f 9476 00b9 39b2 9a3d 0c37 0c3f
000000f0: b9e8 003f 16d5 cd3d 82e1 9b3d 02c7 1e3e

convs.0.weight f4 [64, 1, 3]
0.09525878 -0.8605584 -0.9387894 -0.098403 1.0663601 0.44743085 0.013010144 -0.5291989
0.2123772 -0.09042388 -1.1194348 0.33343855 0.084173724 0.9360176 0.60858595 -0.22002167
-0.11039391 -0.51443857 0.00055762293 1.082799 -0.09280532 -0.0031676544 0.85265523 -0.12685159
0.03739745 -0.63007915 -0.7029427 -0.10189895 -1.0339658 -1.0337436 0.02351617 -0.8835005
-0.9854834 -0.0031297964 -0.91485155 -0.91527766 0.06970634 1.0954105 0.71518 0.18830624
0.39507902 -0.12662196 -0.37194768 0.055206135 -0.30435002 0.07220657 -0.3354685 -0.58050245
-0.21396427 -0.39744774 -0.5342233 -0.1896553 -0.14002922 -0.16241485 0.0027634606 0.64128435
1.2017319 0.1598042 -0.19436866 0.5975356 0.11033816 -0.2963698 -0.584617 0.046774477
0.9016297 0.50453675 -0.39742827 -1.1628271 0.3734075 -0.14496249 -0.040924024 -0.4914067
0.04084511 -0.07571759 -0.60056317 -0.55093575 -0.40976036 -0.3745091 -0.66451114 -0.09123015
0.6314539 0.0524776 -0.30444494 0.15205956 0.15875913 0.08332228 -0.48523676 -0.0026437093
0.862291 0.5012877 0.060799696 0.91572106 0.48695374 -0.6043754 -0.6784461 0.6731797
0.18769334 0.59190685 0.32644248 -0.53751147 -1.2779058 0.5156871 0.04753199 -0.648912
-0.72414213 -0.47543868 -0.75486946 -0.6176318 0.10250288 -0.13219206 1.0686328 -0.0028603976
0.96957 0.60007674 0.010504554 0.88770854 0.3800239 -0.00012094419 -0.26908156 -0.15376212
0.03385783 -0.66485626 -0.74174064 0.016223967 -0.5111435 0.39460385 -0.0036427535 1.0011829
0.49624702 -0.003371005 0.24942401 1.3197312 -0.00215159 -0.88841695 -0.8885558 0.11172291
0.8922855 -0.36982638 0.12496974 0.0933785 1.0667027 -0.050921313 0.9585868 -0.040434156
-0.026744291 -0.5466518 -0.5466306 -0.25998202 0.0352757 -0.54817885 -0.4893605 -0.85675347
-0.48871815 0.19914405 0.083344385 -0.30710697 -0.0019468397 1.1990693 0.65256 -0.60364676
0.04583886 0.6997099 0.22801934 0.9844849 -0.14495802 0.13826571 0.22779399 0.7437913
-0.51318467 -1.158432 -0.74751776 -0.00089147565 0.03811654 1.2550112 0.053134862 0.63032293
1.1754893 -0.18307006 -0.8270135 -0.70643944 -0.34004888 -0.38380918 0.10063746 0.10421729
0.16738977 -0.11801977 -0.0031249847 0.70289075 1.0704353 -0.00010889251 -0.45015576 0.73737746
00000000: 0917 c33d 8e4d 5cbf 8154 70bf 8387 c9bd
00000010: 7d7e 883f a815 e53e 8028 553c 9479 07bf
00000020: 6979 593e 2830 b9bd a449 8fbf 75b8 aa3e
00000030: 4663 ac3d d99e 6f3f 4acc 1b3f 5c4d 61be
00000040: 3416 e2bd 3fb2 03bf 712d 123a 2899 8a3f
00000050: b710 bebd 6c98 4fbb 9d47 5a3f 62e5 01be
00000060: 122e 193d de4c 21bf 0ef4 33bf 66b0 d0bd
00000070: fe58 84bf b651 84bf fca4 c03c 172d 62bf
00000080: a448 7cbf 451d 4dbb b633 6abf a34f 6abf
00000090: 33c2 8e3d 6936 8c3f 0916 373f 5ad3 403e
000000a0: cc47 ca3e 30a9 01be ed6f bebe d41f 623d
000000b0: c4d3 9bbe 0ae1 933d 87c2 abbe cf9b 14bf
000000c0: 7319 5bbe 457e cbbe dcc2 08bf 0035 42be
000000d0: d263 0fbe 1450 26be 2d1b 353b 362b 243f
000000e0: 5ad2 993f b6a3 233e 9408 47be 18f8 183f
000000f0: f9f8 e13d c8bd 97be 76a9 15bf 9896 3f3d
00000100: 34d1 663f 5229 013f b87b cbbe 85d7 94bf
00000110: 452f bf3e 0c71 14be f39f 27bd a999 fbbe
00000120: 344d 273d d311 9bbd 82be 19bf 200a 0dbf
00000130: 1ccc d1be a8bf bfbe 671d 2abf dfd6 babd
00000140: f6a6 213f c0f2 563d 35e0 9bbe 80b5 1b3e
00000150: c191 223e dfa4 aa3d f470 f8be 1542 2dbb
00000160: 1abf 5c3f 6454 003f 1a09 793d b26c 6a3f
00000170: 0052 f93e 59b8 1abf a5ae 2dbf 8155 2c3f
00000180: af32 403e 3587 173f 7823 a73e 5a9a 09bf
00000190: 6b92 a3bf 1204 043f e7b0 423d 191f 26bf
000001a0: 6161 39bf b36c f3be 203f 41bf 1e1d 1ebf
000001b0: 08ed d13d 5b5d 07be f6c8 883f 8275 3bbb
000001c0: bd35 783f a19e 193f 4b1b 2c3c de40 633f
000001d0: 7e92 c23e 6ba3 fdb8 0fc5 89be d173 1dbe
000001e0: 82ae 0a3d 0534 2abf b7e2 3dbf 20e8 843c
000001f0: 4dda 02bf 8409 ca3e 43bb 6ebb c326 803f
00000200: 1714 fe3e 14ec 5cbb 0269 7f3e f4ec a83f
00000210: b101 0dbb 4b6f 63bf 6578 63bf fbce e43d
00000220: d36c 643f e259 bdbe 23f0 ff3d 3a3d bf3d
00000230: b789 883f de92 50bd f265 753f 499e 25bd
00000240: d816 dbbc 5ff1 0bbf fcef 0bbf 5d1c 85be
00000250: 417d 103d 7355 0cbf 768d fabe 3254 5bbf
00000260: 4439 fabe 6bec 4b3e 76b0 aa3d 203d 9dbe
00000270: 1a2d ffba 1a7b 993f 2c0e 273f 9888 1abf
00000280: 87c1 3b3d 3020 333f e77d 693e 3407 7c3f
00000290: e06f 14be 8795 0d3e d442 693e 1b69 3e3f
000002a0: 1260 03bf 8047 94bf 535d 3fbf ebb1 69ba
000002b0: 1720 1c3d 35a4 a03f f1a3 593d d85c 213f
000002c0: 6f76 963f b876 3bbe 28b7 53bf 37d9 34bf
000002d0: e31a aebe a382 c4be 031b ce3d e06f d53d
000002e0: 3968 2b3e 59b4 f1bd 8bcc 4cbb a6f0 333f
000002f0: 0604 893f 395d e4b8 d17a e6be c5c4 3c3f

convs.0.bias f4 [64]
0.4948736 0.04040756 -0.5986853 0.1613461 0.080089055 0.29979438 -0.055777334 0.061396647
0.4794322 0.6264564 0.3559147 0.26067674 0.07605922 0.0893241 0.17484811 -0.73795944
0.43905675 -0.49895278 -0.037783362 0.5772419 -0.67997444 0.078105316 0.5735033 0.22645193
0.6280161 -0.5673471 0.26987156 -0.5927189 -0.7955233 0.07132092 0.079999335 0.1442585
-0.35226035 0.5140557 0.1352659 0.35994956 0.06919566 0.070964165 -0.2521319 -0.31771323
0.25272498 0.33732313 0.004476949 0.021434603 0.29678607 0.07520511 0.21097803 0.07004665
0.27984953 0.43843877 0.37400854 0.050926097 0.0051224115 0.30071324 0.04576817 0.53929603
0.6803762 -0.00012251205 0.075535245 0.54771495 0.50355107 0.100504085 0.076113716 0.15505603
00000000: 1360 fd3e 6682 253d 7143 19bf e937 253e
00000010: bb05 a43d a67e 993e c676 64bd 0d7b 7b3d
00000020: 2378 f53e 725f 203f 743a b63e 6c77 853e
00000030: f0c4 9b3d 8eef b63d 620b 333e e9ea 3cbf
00000040: 0ccc e03e bd76 ffbe bac2 1abd 20c6 133f
00000050: ce12 2ebf aef5 9f3d 1dd1 123f 04e3 673e
00000060: aac5 203f a93d 11bf 9b2c 8a3e 6dbc 17bf
00000070: 6aa7 4bbf b410 923d b1d6 a33d 80b8 133e
00000080: 785b b4be 2899 033f 2583 0a3e 4f4b b83e
00000090: 74b6 8d3d a955 913d 6f17 81be 4fab a2be
000000a0: 2b65 813e 9eb5 ac3e 5fb3 923b 9f97 af3c
000000b0: 58f4 973e 2305 9a3d a00a 583e 9e74 8f3d
000000c0: 7048 8f3e 0c7b e03e 0c7e bf3e e297 503d
000000d0: e7d9 a73b 16f7 993e 6877 3b3d 4e0f 0a3f
000000e0: 222d 2e3f 9476 00b9 39b2 9a3d 0c37 0c3f
000000f0: b9e8 003f 16d5 cd3d 82e1 9b3d 02c7 1e3e

fc1.weight f4 [64, 384]
-0.0057157204 0.110797994 -0.21645735 -0.05257266 0.01011468 -0.043549698 0.38780716 -0.24674547
0.6993543 0.13098261 0.22099937 -0.26303828 0.009597407 -0.02902559 0.011424132 -0.0043933652
0.03353011 0.013445392 -0.510544 -0.14927612 -0.08283659 -0.1185136 -0.13200298 -0.13783075
0.047375333 0.26855817 0.3874459 0.2577896 0.1830518 -0.24032012 -0.025017941 -0.02007007
-0.12142253 -0.092266954 -0.03708222 -0.059202403 0.033200797 -0.38712862 0.77254283 0.031128414
0.3799309 0.18418045 0.14529367 -0.31131926 0.71398 0.031381615 0.22507095 0.23756811
0.053133644 -0.033284202 -0.11905895 -0.04063091 -0.05800164 -0.025158651 -0.1326053 -0.0047641206
-0.18827198 -0.07299533 -0.002796856 0.023107655 -0.018040998 -0.02934918 -0.281222 -0.04877093
-0.022425182 -0.02973664 -0.32627955 -0.05392927 -0.36929834 -0.097567536 -0.029602291 -0.07606156
-0.01228059 0.16334137 0.4014313 0.26847845 0.12845853 -0.30683392 0.029453393 0.34673193
0.43105337 0.4488976 0.2314367 0.13656518 -0.022571616 -0.13711812 -0.13578744 -0.14219658
-0.14923123 -0.10883533 0.022047175 0.013417117 -0.05013509 -0.0071856678 -0.035483822 -0.0077038147
-0.14837013 -0.019793333 -0.11582436 -0.07643424 -0.06626913 0.010702465 -0.038797703 -0.04829232
-0.0048691444 -0.0119093545 0.013214648 0.044714637 0.0093206465 0.07467794 0.490098 0.28303474
0.18826053 -0.34809047 0.019366177 0.060477354 -0.0031058353 0.04810641 -0.010386 -0.10338735
0.03558066 -0.033521276 0.045736767 0.005272545 -0.004194528 -0.0058612935 0.04847446 0.15222119
0.47954223 0.27800682 0.18895148 -0.3748857 -0.14391 -0.056215633 0.04170515 -0.050533336
-0.040781103 -0.1092701 -0.029783642 -0.06407845 -0.10964012 -0.078992344 -0.0433094 -0.058801677
0.04615544 0.019049905 -0.012846124 -0.015530804 -0.055830736 -0.032279413 0.009154636 0.009655032
-0.03660685 -0.035523884 -0.02143605 -0.041343473 -0.068281464 -0.047026467 0.11594224 -0.010161637
-0.08824821 -0.15417886 -0.016132953 -0.023407314 -0.02315602 -0.027053682 -9.766966e-05 -0.03618191
0.015592179 -0.023236867 0.048965827 -0.028136091 -0.003958311 0.020384045 0.26810583 0.09357992
0.5645528 0.21499953 0.22702356 -0.45397615 0.015862055 0.27979788 0.529812 0.27013487
0.19263944 -0.25945637 -0.3316335 -0.15959603 0.10690474 -0.059586566 -0.19992584 -0.20521277
0.048726432 -0.050847407 0.20459436 0.19933932 0.25566798 0.21344347 -0.19953062 -0.091824554
0.027872762 -0.038648915 -0.05319137 -0.056750808 -0.018018851 0.22910602 -0.5807226 -0.068556756
-0.12196273 -0.08429843 -0.14675315 -0.05261078 -0.16319779 -0.022217294 -0.101061344 0.01821707
-0.036499407 0.29523274 0.61033154 0.5233192 0.23606122 -0.44694763 0.28777057 0.046194058
0.47303203 0.18549858 0.18496192 -0.32403848 -0.02493071 -0.5394722 0.44537306 0.25176433
0.33229208 0.20489238 0.0039923573 -0.039176382 0.00046844408 -0.021925233 -0.037423316 -0.03590247
0.044691626 0.030471984 -0.3442414 -0.08030194 -0.048533175 0.0047812397 -0.0041197957 0.014855768
0.010736364 -0.0715727 -0.07234528 -0.09203752 0.10168597 -0.34331328 0.560814 0.15484846
00000000: f04a bbbb 0fea e23d ffa6 5dbe 6e56 57bd
00000010: 0bb8 253c 2b61 32bd a98e c63e d8aa 7cbe
00000020: e208 333f 4e20 063e a94d 623e f4ac 86be
00000030: 713e 1d3c 13c7 edbc 482c 3b3c 38f6 8fbb
00000040: de56 093d 104a 5c3c 03b3 02bf d7db 18be
00000050: 3ba6 a9bd 42b7 f2bd ca2b 07be 8123 0dbe
00000060: a30c 423d 7580 893e 4f5f c63e 00fd 833e
00000070: ee71 3b3e 7a16 76be 6df2 ccbc fd69 a4bc
00000080: 60ac f8bd 75f6 bcbd 87e3 17bd 387e 72bd
00000090: 8ffd 073d b935 c6be 5ec5 453f 0401 ff3c
000000a0: 4e86 c23e cd99 3c3e ddc7 143e 3d65 9fbe
000000b0: 65c7 363f 028a 003d 0079 663e 0e45 733e
000000c0: aaa2 593d 0455 08bd 2ed5 f3bd 996c 26bd
000000d0: 2193 6dbd 8419 cebc afc9 07be 571c 9cbb
000000e0: 5fca 40be 937e 95bd 754b 37bb 444c bd3c
000000f0: b7ca 93bc b16d f0bc 54fc 8fbe 07c4 47bd
00000100: 04b5 b7bc 419a f3bc 1d0e a7be f0e4 5cbd
00000110: ac14 bdbe 7dd1 c7bd 8180 f2bc 2ac6 9bbd
00000120: 8734 49bc f642 273e 6788 cd3e 0276 893e
00000130: a28a 033e 5619 9dbe 3e48 f13c d986 b13e
00000140: 07b3 dc3e e8d5 e53e befd 6c3e bed7 0b3e
00000150: 1ce8 b8bc b168 0cbe dd0b 0bbe fb9b 11be
00000160: 12d0 18be 0fe5 debd 479c b43c 78d3 5b3c
00000170: 745a 4dbd c075 ebbb 7c57 11bd 4870 fcbb
00000180: 57ee 17be a125 a2bc 5235 edbd 8e89 9cbd
00000190: 1cb8 87bd 6459 2f3c 57ea 1ebd 2bce 45bd
000001a0: 588d 9fbb 741f 43bc 4082 583c b226 373d
000001b0: a0b5 183c bff0 983d 20ee fa3e eee9 903e
000001c0: 5ec7 403e ea38 b2be d1a5 9e3c 1ab7 773d
000001d0: 458b 4bbb 3a0b 453d 0b2a 2abc bfbc d3bd
000001e0: 07bd 113d 9b4d 09bd 7a56 3b3d 50c5 ac3b
000001f0: 4072 89bb 1810 c0bb 288d 463d dfdf 1b3e
00000200: 8f86 f53e e956 8e3e 7f7c 413e 05f1 bfbe
00000210: 255d 13be 5d42 66bd 05d3 2a3d 0bfc 4ebd
00000220: 160a 27bd 01c9 dfbd d3fc f3bc 903b 83bd
00000230: 008b e0bd bdc6 a1bd 3365 31bd 07da 70bd
00000240: 7d0d 3d3d 8c0e 9c3c 8d78 52bc ea74 7ebc
00000250: c5ae 64bd 6b37 04bd 54fd 153c 2430 1e3c
00000260: 10f1 15bd 7e81 11bd a89a afbc c657 29bd
00000270: 27d7 8bbd d39e 40bd 2073 ed3d ff7c 26bc
00000280: 7abb b4bd 10e1 1dbe 4129 84bc b2c0 bfbc
00000290: b2b1 bdbc af9f ddbc 00d4 ccb8 7c33 14bd
000002a0: 5776 7f3c 3e5b bebc 6490 483d a97d e6bc
000002b0: b8b4 81bb 71fc a63c 2b45 893e d4a6 bf3d
000002c0: 8886 103f d628 5c3e dd78 683e 906f e8be
000002d0: 24f1 813c ab41 8f3e c2a1 073f 1e4f 8a3e
000002e0: 4643 453e 77d7 84be decb a9be 246d 23be
000002f0: dff0 da3d 0b11 74bd 5cb9 4cbe 4c23 52be
00000300: 5e95 473d 5f45 50bd 2f81 513e 9b1f 4c3e
00000310: eae6 823e ed90 5a3e c151 4cbe 830e bcbd
00000320: 6b55 e43c 534e 1ebd 32df 59bd 8973 68bd
00000330: 459c 93bc c59a 6a3e 3caa 14bf 7c67 8cbd
00000340: 99c7 f9bd a8a4 acbd 7546 16be 677e 57bd
00000350: 521d 27be 0b01 b6bc 40f9 cebd f73b 953c
00000360: 6780 15bd bf28 973e b03e 1c3f 3ff8 053f
00000370: 08ba 713e 52d6 e4be aa56 933e fb35 3d3d
00000380: 4131 f23e 57f3 3d3e a866 3d3e 5fe8 a5be
00000390: 7d3b ccbc da1a 0abf f007 e43e 41e7 803e
000003a0: 3022 aa3e 4fcf 513e 52d2 823b 6a77 20bd
000003b0: 8099 f539 8c9c b3bc 3149 19bd 780e 13bd
000003c0: 910e 373d 62a0 f93c 6940 b0be 5875 a4bd
000003d0: b9ca 46bd f2ab 9c3b 5aff 86bb 9b65 733c
000003e0: 93e7 2f3c b594 92bd c329 94bd 2b7e bcbd
000003f0: bc40 d03d c2c6 afbe 8291 0f3f 9890 1e3e

fc1.bias f4 [64]
0.0041672024 -0.037004434 0.09176111 -0.10751557 0.026830554 -0.031092169 -0.053344853 0.16645066
-0.08561693 0.060873605 -0.049872026 0.01547395 -0.13066483 0.052062772 -0.13349907 0.1019841
0.08265396 -0.1367577 -0.03740988 -0.05268685 -0.021500422 -0.012608437 0.057278786 -0.110877395
0.06532117 -0.013830528 0.04810037 0.027495328 0.00043264375 -0.07131846 -0.073215365 -0.08630224
-0.050363466 -0.021805324 0.0005440936 0.17992924 -0.2608615 0.0051243524 -0.11779204 0.050144877
0.058518294 -0.09062817 0.021244869 -0.059401043 -0.037182793 -0.04331308 0.041721504 -0.16604684
0.03099704 -0.08611142 -0.07996714 0.059104737 0.034929123 0.108410954 -0.21303733 0.17358166
-0.09792398 0.017719625 0.07733254 0.12521225 -0.03637601 -0.097807944 0.08771214 -0.060213756
00000000: 078d 883b f691 17bd 40ed bb3d 2031 dcbd
00000010: c0cb db3c 01b5 febc 2280 5abd 0b72 2a3e
00000020: ee57 afbd 9a56 793d 9c46 4cbd 7386 7d3c
00000030: 00cd 05be c63f 553d fbb3 08be 0add d03d
00000040: 7b46 a93d 360a 0cbe 1a3b 19bd 2bce 57bd
00000050: a721 b0bc 9e93 4ebc 299d 6a3d b013 e3bd
00000060: 1bc7 853d 7099 62bc e504 453d e23d e13c
00000070: 76d4 e239 6a0f 92bd f0f1 95bd 3bbf b0bd
00000080: ec49 4ebd 14a1 b2bc 81a1 0e3a 5f3f 383e
00000090: a38f 85be 2fea a73b f43c f1bd b764 4d3d
000000a0: e1b0 6f3d 439b b9bd b809 ae3c 824e 73bd
000000b0: fc4c 18bd 0e69 31bd 2be4 2a3d 2f08 2abe
000000c0: 81ed fd3c 2f5b b0bd d0c5 a3bd cf17 723d
000000d0: d711 0f3d 9006 de3d 7526 5abe 64bf 313e
000000e0: 5e8c c8bd bf28 913c 8660 9e3d a437 003e
000000f0: 03ff 14bd 884f c8bd 6ca2 b33d b3a2 76bd

fc2.weight f4 [2, 64]
0.047462136 0.015292169 0.0672002 0.07701005 -0.097746454 0.06595132 -0.09417709 -0.0071882536
-0.11155358 -0.040011007 0.0019705403 -0.062693425 -0.080162324 -0.110294774 0.057078857 -0.10997473
-0.015837904 -0.07249747 0.091389 0.06812628 0.06557515 0.0053232145 -0.09954784 0.032940164
-0.054701038 -0.030021988 -0.06344198 -0.03933776 -0.008104246 -0.038472228 -0.040136985 -0.06530603
-0.106560744 0.011194182 0.09941101 0.04289236 -0.08052876 -0.021642119 -0.069932796 -0.0043172226
-0.09014674 0.07550613 -0.0005093505 0.031931467 0.09461847 0.068228535 -0.038688023 -0.023814773
0.031487938 0.0068079513 0.117720254 -0.08529055 -0.0806896 0.036305264 0.06457134 -0.06580628
0.026789028 -0.09805565 -0.06957175 0.098459646 -0.00085298 0.055574432 -0.06651182 -0.011637779
-0.06693254 -0.067937925 0.102522716 0.08068026 0.0120588485 0.037102487 0.10041972 -0.009216859
-0.114290856 -0.03902783 0.032628532 -0.064307615 -0.08158171 -0.08797987 -0.05851211 -0.10967446
0.040415518 -0.0801429 0.024719948 -0.078439794 -0.043474887 -0.10420891 -0.055665076 -0.063330926
-0.051786415 0.057540517 -0.061928853 -0.010786392 0.08689367 -0.051885772 -0.10768507 -0.09712043
-0.11833736 -0.056308728 0.09326245 0.046360135 -0.092948526 0.08375347 -0.1298611 0.07752201
0.0008497502 0.06800888 0.114277 0.03196057 0.102096066 -0.063306645 -0.020897303 -0.02743533
0.030090211 -0.0047008325 0.044005398 0.08452235 -0.0341593 0.07637957 -0.03695645 0.07952561
0.021915548 -0.034866467 0.09227699 0.09817487 -0.040357314 0.054762237 0.06475971 -0.063833825
00000000: a867 423d 018c 7a3c 42a0 893d 72b7 9d3d
00000010: 4b2f c8bd 7c11 873d ebdf c0bd 718b ebbb
00000020: 3476 e4bd 95e2 23bd 2e24 013b 6965 80bd
00000030: 252c a4bd 3ae2 e1bd 85cb 693d 6e3a e1bd
00000040: 7ebe 81bc 8e79 94bd 282a bb3d cb85 8b3d
00000050: 444c 863d 5c6e ae3b bddf cbbd 44ec 063d
00000060: 320e 60bd acf0 f5bc deed 81bd a220 21bd
00000070: acc7 04bc 0e95 1dbd ae66 24bd 2bbf 85bd
00000080: 853c dabd cd67 373c 0098 cb3d e6af 2f3d
00000090: 43ec a4bd d04a b1bc ed38 8fbd 7d77 8dbb
000000a0: db9e b8bd f5a2 9a3d ef85 05ba 92ca 023d
000000b0: 54c7 c13d 67bb 8b3d 5577 1ebd 3317 c3bc
000000c0: 7ff9 003d 3c15 df3b 5117 f13d d0ac aebd
000000d0: 9740 a5bd d4b4 143d fb3d 843d 71c5 86bd
000000e0: aa74 db3c 67d1 c8bd a27b 8ebd 36a5 c93d
000000f0: 859a 5fba 04a2 633d 5937 88bd 62ac 3ebc
00000100: ed13 89bd 0a23 8bbd 6ef7 d13d b13b a53d
00000110: 7a92 453c c7f8 173d dba8 cd3d 4f02 17bc
00000120: 5311 eabd a5db 1fbd 7fa5 053d b6b3 83bd
00000130: 5014 a7bd ca2e b4bd 65aa 6fbd 019d e0bd
00000140: be8a 253d f621 a4bd 7d81 ca3c 0ba5 a0bd
00000150: b912 32bd 7b6b d5bd 1001 64bd a5b3 81bd
00000160: fe1d 54bd 9baf 6b3d 1ca9 7dbd 68b9 30bc
00000170: 4ff5 b13d 2d86 54bd fd89 dcbd 13e7 c6bd
00000180: dc5a f2bd fba3 66bd 6200 bf3d 20e4 3d3d
00000190: cc5b bebd f086 ab3d 4ffa 04be dcc3 9e3d
000001a0: c5c1 5e3a 3d48 8b3d 0f0a ea3d 16e9 023d
000001b0: be17 d13d eaa6 81bd d230 abbc 0fc0 e0bc
000001c0: bf7f f63c 7109 9abb 013f 343d 0e1a ad3d
000001d0: 9fea 0bbd e46c 9c3d a65f 17bd 53de a23d
000001e0: 3c88 b33c 24d0 0ebd b8fb bc3d e80f c93d
000001f0: b64d 25bd 5e4e 603d bda0 843d 4fbb 82bd

fc2.bias f4 [2]
-0.0075547793 0.016620375
00000000: 158e f7bb 7427 883c
