IDS/cnn_best_model.pth (torch, 43098 bytes, 16 tensors)

conv1.weight f4 [64, 1, 3]
000000 1e a9 a0 3e 61 12 89 be 9d 1e c5 be b0 3f c0 bd
       0.31379026 -0.26771834 -0.3849992 -0.093871474
000010 98 f6 d1 3e 95 f3 8b be b6 44 32 bf df 9e a3 3e
       0.4100845 -0.27334276 -0.69636095 0.31957147
000020 b1 d8 10 3f a3 4e b2 3d c2 41 96 3e fe 99 32 3f
       0.56580645 0.08706405 0.29347044 0.69766223
000030 8b 44 1c b8 22 b2 d5 be df d0 15 3f 88 6c 3b 3d
       -3.7257134e-05 -0.41737467 0.58521837 0.0457578
000040 c0 ff c0 3d 15 7c 59 3f cf 6f 3f 3d 3e 47 39 be
       0.094237804 0.8495496 0.04673749 -0.18093583
000050 18 ce 31 bf da da b4 be 88 27 50 be e0 5c cd be
       -0.694551 -0.3532322 -0.2032758 -0.4010992
000060 d5 f1 57 b9 f6 a7 00 bf a4 0c 02 3f 44 73 7d bd
       -0.00020594087 -0.5025629 0.5080054 -0.061877504
000070 44 03 3b be 2d 73 3b 3f ad de ae 3e 9f 31 f9 3e
       -0.18262964 0.7322262 0.34154263 0.4867067
000080 4f 90 31 be 20 8b 7e 3e 9a 50 2a be 14 98 19 bf
       -0.17340206 0.2485776 -0.1663231 -0.5999768
000090 62 ac 86 3e 81 90 1c bf 4f 84 2b be 49 ca 0c bf
       0.26303393 -0.61157995 -0.1674969 -0.5499616
0000a0 a1 68 74 b9 dd 27 be be 37 81 cb 3e 5a b0 cb 3e
       -0.0002330863 -0.37139788 0.3974702 0.39782983
0000b0 3c cf bc 3e 8e 28 be 37 58 4f 1d be 9b 39 1d 3f
       0.36876857 2.266865e-05 -0.15362298 0.61416024
0000c0 05 24 e2 bd 36 bc 13 3e ee b4 b1 be 45 3e e2 be
       -0.110420264 0.14427266 -0.3470835 -0.44188133
0000d0 93 cd c1 39 b9 56 bb be 8c fa 9d bd 69 b8 e0 3c
       0.00036964993 -0.36589602 -0.07713804 0.027431684
0000e0 74 9e 21 be a0 b8 e9 3e 79 56 2f be 53 2d 15 be
       -0.15783101 0.4564867 -0.1712283 -0.14568071
0000f0 c2 d9 bf 3c 91 d2 f6 3e 42 69 d3 be 33 e8 dc be
       0.023419265 0.48207524 -0.41291243 -0.43145904
000100 1e f6 32 3e 04 e8 dc be 8b 29 e0 3e f8 90 88 3e
       0.17476699 -0.43145764 0.43781695 0.26673102
000110 59 e8 12 3f aa 6a 07 ba 99 b1 0f bf 2d 49 c3 3e
       0.57385784 -0.00051657355 -0.5613037 0.38141766
000120 c6 d0 09 3e 33 43 53 3e 29 9a 41 3f e5 4e eb be
       0.13458547 0.20631103 0.75625855 -0.4595863
000130 67 24 86 3e 55 fa 6c be 9a e6 d8 3e 71 03 17 bf
       0.26199648 -0.23142369 0.42363435 -0.58989626
000140 ed 20 ea be a2 4e 5a ba 50 57 39 bf 77 7f 3d 3f
       -0.45728245 -0.0008327757 -0.72398853 0.7402262
000150 2b 98 ba 3e b5 1e f2 3e 17 ee 1e 3f 0a d9 36 b8
       0.3644422 0.47289053 0.62082046 -4.3594315e-05
000160 35 d9 ae be 2c 4e cf 3e 19 62 f4 be de 5f a8 be
       -0.3415009 0.40489328 -0.47731093 -0.3288564
000170 fa 8b a4 3e 88 ab 9b ba 80 1d 1c bf b0 d2 fd 3e
       0.32138044 -0.0011876682 -0.60982513 0.49574804
000180 f2 7f 69 3e 06 c1 22 bf 91 14 55 3f 09 e7 b8 be
       0.22802714 -0.6357578 0.83234507 -0.36113766
000190 66 a0 05 be 28 58 10 3e 5a d5 cf be c0 64 62 bc
       -0.13049468 0.14096129 -0.40592462 -0.013817966
0001a0 f2 8d 0d be 8f ad 74 ba 1c 58 01 bf 80 ca ae 3e
       -0.13823679 -0.00093337236 -0.5052507 0.3413887
0001b0 ce e4 12 bf 9b ab 52 bf 35 fe 41 be 43 0d 9b be
       -0.5738038 -0.822931 -0.18944629 -0.30283555
0001c0 1c 4a df be c6 ac 3a 3d e9 9f fa be 67 fa 0d 3e
       -0.43611228 0.045574926 -0.48950127 0.13865052
0001d0 bf 80 e2 3d e8 00 85 3e 75 e3 84 3e ee 8d 48 3f
       0.110597126 0.25977254 0.25954786 0.7834157
0001e0 e3 05 10 bf f7 d4 2f 3a cf 50 a5 3e 8a 8d 1f bf
       -0.5625898 0.00067074544 0.32288215 -0.62325346
0001f0 f0 ca af 3e f8 57 99 be c5 3c a8 be 52 da 10 be
       0.34334517 -0.29949927 -0.32858863 -0.14145783
000200 ac 5a 81 be 61 da 5d 3e 50 ad 1a bf bd a3 48 bf
       -0.2526449 0.21665336 -0.60420704 -0.78374845
000210 90 c7 e6 3e 0e 1a e9 bd f1 19 56 3f 1f c5 2e bd
       0.4507413 -0.11381923 0.83633333 -0.042668458
000220 94 ce 03 3e 99 ea c0 be fc a7 10 bf a4 a7 5b be
       0.12871772 -0.37678984 -0.56506324 -0.21450669
000230 df 00 93 be 40 ad 14 bc c4 f7 bf bd 3c 5c 22 3e
       -0.28711602 -0.009074509 -0.093734294 0.15855497
000240 35 14 83 3e df 68 07 bf 73 54 01 3f a7 28 2d bc
       0.25601354 -0.52894396 0.50519484 -0.010568774
000250 e3 21 17 3e 18 c7 dd be 78 99 a9 b9 78 45 a1 3e
       0.1475902 -0.4331596 -0.00032348535 0.31498313
000260 e2 97 e9 be 4b 68 45 3e 7e 5a d0 be ec c2 7b 3e
       -0.4562369 0.19278066 -0.4069404 0.24586076
000270 53 6b e8 3e ea 1e 04 bf ae 81 0a bf 0e 2a 0c 3f
       0.45394382 -0.5160967 -0.54104125 0.5475167
000280 e5 d7 e4 3e 85 2a da 3e 55 77 d9 3c ef 2e a1 3e
       0.44695964 0.42610565 0.02654616 0.3148112
000290 b9 5e d9 3c cb 27 82 3d 3b ff d9 be b8 63 05 bf
       0.026534425 0.06355246 -0.42577538 -0.52105284
0002a0 fd d1 e9 be a6 47 ca be 4c 1b 0b be 80 6b f6 bc
       -0.4566802 -0.39507788 -0.13584632 -0.030080557
0002b0 52 9c e5 be da 80 11 be 3a 66 58 ba 21 00 13 bf
       -0.44845825 -0.14209309 -0.0008254979 -0.5742207
0002c0 0b 91 9a 3e 73 e6 9c bb 01 41 db 3e bc e7 9c bb
       0.30188784 -0.004788214 0.42823032 -0.004788367
0002d0 88 ed 84 b9 2d a8 ef be 37 8e ef 3e 29 4a 25 be
       -0.00025353977 -0.46807995 0.4678819 -0.16141571
0002e0 17 16 7e be a6 2c 34 bf 65 5f 4d bf ce ea 3e bf
       -0.24813114 -0.7038063 -0.80223686 -0.74577034
0002f0 e1 50 48 bf 1b 0b 62 3e c4 69 19 bf cd ad 24 3e
       -0.7824841 0.22074549 -0.5992701 0.16081925

conv1.bias f4 [64]
000000 7f 0b 08 bd ac 3b 9e 3d 28 c2 15 3f 53 9a d9 3d
       -0.03321409 0.07726225 0.58499384 0.10625138
000010 33 d0 0f 3f a2 de 10 3f 73 97 39 be a0 07 de bd
       0.5617706 0.5658971 -0.1812418 -0.10841298
000020 9a 71 3f 39 2f f1 65 3b d3 57 f8 be 27 03 0c bf
       0.000182575 0.0035086384 -0.48504505 -0.5469231
000030 36 eb 29 3f 01 27 be 3e 7e 15 c3 b6 1a de 77 3e
       0.6637453 0.37139133 -5.813955e-06 0.24205819
000040 6e ba ef 3e a9 2d 29 3f 35 2d 8f 3e 4e 37 5f be
       0.46821922 0.66085297 0.27964178 -0.21798441
000050 f6 2f 20 3f f3 97 18 3f 07 df 33 3d f3 3b 1a 3f
       0.6257318 0.59606856 0.043913867 0.60247725
000060 7a d4 c7 3e f7 df 1a bf 8c fd 01 be 11 4d c1 3e
       0.39029294 -0.60497993 -0.12694377 0.3775411
000070 73 72 05 3f 54 8a 20 3f 87 88 db be d1 6e 76 3e
       0.5212776 0.6271107 -0.428776 0.2406571
000080 71 ae a8 ba 2a b6 cb be 50 cf 6a be 44 c1 27 3e
       -0.001286937 -0.39787418 -0.22930646 0.16382319
000090 a9 90 e1 3e 20 0b 29 3f 2d 43 e3 3e 32 68 d9 3e
       0.4405568 0.660326 0.4438719 0.42462307
0000a0 5a dc 6f 3e 6a 35 ad b7 34 a7 39 be e7 6c 02 3f
       0.23423901 -2.064808e-05 -0.18130189 0.5094742
0000b0 33 dd cd 3e 32 60 e5 3e de ca e6 be 4e de f9 be
       0.40207824 0.44799954 -0.4507665 -0.48802418
0000c0 80 9e 97 3e f6 2a 86 b8 b3 96 d8 ba 2c 92 75 3d
       0.29613113 -6.39762e-05 -0.0016524404 0.059953853
0000d0 af 60 b2 3d 6b ca 16 3e 01 34 16 3f 4b 5c 3a 3e
       0.08709847 0.14725654 0.586731 0.1819927
0000e0 17 20 1c 3f 6a 3b dc be 2e d8 00 3f ac 25 a6 37
       0.60986465 -0.4301408 0.50329864 1.9806284e-05
0000f0 c0 4a 84 39 67 a4 0d 3f 82 45 c2 3e 1b 5b 27 bf
       0.00025232695 0.55328983 0.37943655 -0.6537339

conv2.weight f4 [32, 64, 3]
000000 79 76 78 3d e1 d2 e1 bc 23 6e c5 bd d8 f0 7d bd
       0.06065986 -0.027566375 -0.096401475 -0.061997265
000010 ba d6 7d bd 0b 49 3a 3e c8 51 3e bd fb b0 60 bc
       -0.061972357 0.18191926 -0.04646471 -0.01371407
000020 52 8f 05 3e d9 1a 03 bd af 05 9d bc 67 de 27 3e
       0.13042954 -0.032008026 -0.01916775 0.16393434
000030 e6 4e 7d 3d 43 ba c6 3d 19 a8 53 3e b3 a0 04 3c
       0.06184282 0.09703495 0.20669593 0.008094954
000040 1f 8c d1 bd f7 be 51 3e 77 6c 8a 3d 28 43 36 bc
       -0.10231804 0.20483004 0.06758969 -0.01112441
000050 00 0f 55 3b 40 94 64 3d e2 0b 7e bd 5a 27 93 bd
       0.0032510161 0.055805445 -0.06202305 -0.0718524
000060 ad 3d b0 3b 33 06 34 3e 13 a2 98 3e 1d 06 5f 3d
       0.005378446 0.1758049 0.29811153 0.05444919
000070 80 42 44 bc ab 2e 8b 3e 13 84 d8 3c e1 89 01 bd
       -0.011978745 0.27184042 0.026430165 -0.031625632
000080 b8 42 cb bd f3 19 03 bd 33 ab 6b 3c 14 15 51 bd
       -0.09924835 -0.03200717 0.014384079 -0.051045492
000090 8f e0 db 3c 9c ca 80 bc 67 99 57 3d b0 f8 ab bd
       0.026840476 -0.015721612 0.05263653 -0.08397043
0000a0 23 2c 56 3e ff 80 a4 3d b9 7b fc bc 17 00 06 3d
       0.20915274 0.080324166 -0.030820714 0.03271493
0000b0 5b 1f 35 3c de eb bc bc 2e ef dd bc 75 5b 5e 3e
       0.011054839 -0.023061689 -0.027091589 0.21714576
0000c0 13 22 e9 38 63 13 88 bd a5 1a 06 3e 63 a2 43 3c
       0.000111166526 -0.06644323 0.13096102 0.0119405715
0000d0 35 20 4e 3e 49 e9 de 3d 0d 8b f2 3c ca 09 f8 3c
       0.20129474 0.10884339 0.02960732 0.030278105
0000e0 8d 5e da 3d f2 1c 9d 3d fc 5e a5 bc 70 d5 d7 bd
       0.106625654 0.076715365 -0.020186894 -0.10538757
0000f0 83 df af 3c ab 0a 83 3c ab 24 d9 3d dd 58 0f bd
       0.021468883 0.015996298 0.10602697 -0.034996856
000100 49 43 c4 bb 9b b9 c4 3c 41 c9 01 bd 9a c1 11 bd
       -0.0059894663 0.024014285 -0.03168607 -0.035585023
000110 89 08 1c 3e bb c2 38 3c 7e cd a0 3d 1e b3 7c 3e
       0.15237631 0.011276896 0.078516945 0.24677703
000120 c1 07 99 3c 24 ae 0c 3d dc 75 10 3e fb 70 01 bd
       0.018680455 0.03434576 0.1410746 -0.031601887
000130 d1 c9 60 3d 80 c6 c7 3a 93 f5 0d bc d2 cb cd 3b
       0.054879967 0.0015241653 -0.0086645065 0.006280401
000140 e7 20 9c bd 5f e2 94 3d c5 aa af 3d 22 da 3f 3e
       -0.07623463 0.07269739 0.085774936 0.18735555
000150 97 02 f1 bb 35 c6 63 bc f9 af 26 3e 32 ee c2 bb
       -0.007355045 -0.013902237 0.16278066 -0.0059488053
000160 db 81 e3 3d 96 37 61 3e 80 1b 40 bb 53 02 08 bd
       0.11108752 0.2199386 -0.0029313266 -0.03320534
000170 22 3e 52 3d 24 e8 96 3d e2 b2 70 3d 42 0e 9b 3e
       0.051328786 0.07368496 0.058764346 0.30284315
000180 e9 88 16 3d eb cb 84 3b e2 2c 9f 3e 72 94 44 bd
       0.03675166 0.004052629 0.3108893 -0.04799313
000190 02 cf d6 bc 51 64 01 bd 54 e9 65 bc e0 15 39 bc
       -0.026221756 -0.03158981 -0.014032681 -0.011296719
0001a0 48 07 81 bd e3 03 a1 3d 33 dd 3c 3e ee 29 54 3e
       -0.06300217 0.078620695 0.18443756 0.2071912
0001b0 47 e9 a5 bd 31 5c 9c bb f2 0b 8f bc fd 99 9d 3c
       -0.08101135 -0.0047717323 -0.01746175 0.019238466
0001c0 d2 88 f8 3c 38 e2 27 3e 94 25 5a bd 0e a9 18 bd
       0.030338679 0.1639489 -0.053258494 -0.037270598
0001d0 e8 51 14 3e 78 8e 4b 3d 89 cf 2b bc 31 4a 38 3e
       0.1448437 0.049696416 -0.010486492 0.17997052
0001e0 e9 1d 12 3e 2a bc ed 3b f0 44 1d 3e 42 78 b3 3b
       0.14269222 0.007255097 0.15358329 0.0054769823
0001f0 00 99 58 3d 45 9d 7a 3e c8 f6 11 bc 21 9a 36 bd
       0.052880287 0.24474056 -0.008908935 -0.044580583
000200 a2 e0 83 3d 3a 5d 81 3d a7 ee dd 3c 55 db 91 bd
       0.0643933 0.0631661 0.027091337 -0.071219124
000210 5f f4 40 bd 2c c2 b0 bd 1a 2b 0c 3e 45 1c f9 bc
       -0.04710805 -0.08630785 0.13688317 -0.030408988
000220 1d 85 6e bd 0a c6 07 3e b0 0d 64 bd 2c c7 20 bd
       -0.058232415 0.1325914 -0.055677116 -0.039252445
000230 88 69 6f 3c 1f 43 51 bd 6e e4 84 3d 78 6a 88 3d
       0.014612563 -0.051089402 0.06488882 0.06660932
000240 c6 9b b3 3c 3f 45 83 ba 16 9a 3c 3e b3 ae 68 bd
       0.021924865 -0.0010015144 0.18418154 -0.05680723
000250 b0 7a fd bc 5a d4 b6 3d 7e 85 8e bc 1c 08 8d 3d
       -0.030942291 0.089272216 -0.017397638 0.06886312
000260 7a 27 3a 3e dc 1a e9 ba 51 e6 78 bd 89 be 05 3e
       0.18179122 -0.0017784494 -0.06076652 0.13060965
000270 ff a7 99 3d 3d 47 3b 3d 43 a4 63 bd 76 9e c7 bc
       0.07502746 0.045722235 -0.055576574 -0.024367552
000280 50 3f a3 bd e8 10 67 bc 14 db cc 3c 03 a2 00 3d
       -0.0797106 -0.014103152 0.025006808 0.031404506
000290 25 30 f8 3c 26 75 82 3d fc ad 0d 3d 78 3e c6 bc
       0.030296395 0.063700005 0.034589753 -0.02419971
0002a0 65 f5 40 bd 9c 63 59 3d bc 0d 90 3d 1a 9d 2f bd
       -0.047109026 0.05307351 0.070338696 -0.042874433
0002b0 b8 6e 09 bc 70 d9 bb 3c 7e f2 40 bd 7e 21 33 3e
       -0.008388214 0.02293083 -0.04710626 0.17493245
0002c0 e0 68 6f 3e 8b 58 a1 bc be 0d 47 3d 45 03 4f 3e
       0.2337985 -0.01969554 0.04859709 0.20216091
0002d0 5c 74 92 bb fe 18 18 3e 8c c0 80 3e 23 fd 88 bd
       -0.0044694375 0.14853284 0.25146902 -0.06688907
0002e0 fb 5f cb 3d 11 87 87 3d de 33 79 be db 33 d3 bd
       0.09930416 0.06617559 -0.24336192 -0.10312625
0002f0 50 ef 64 be 42 3f 18 bd 90 1b 11 bd ac 78 6a 3d
       -0.22356915 -0.037169702 -0.035426676 0.057243988
000300 1d e5 3b bc d1 92 3a bd 63 c7 1f be f2 67 6c bd
       -0.011468199 -0.04555017 -0.15603404 -0.057716317
000310 3b cf 09 bc c3 96 33 3e 58 3a 1b bd 37 aa 94 3b
       -0.008411224 0.1753798 -0.037897438 0.0045368928
000320 37 ed 21 3e d2 13 a5 bd 4c f2 69 bd ab f3 83 3e
       0.15813147 -0.08060421 -0.057115838 0.2577184
000330 7b 60 c8 bc b4 31 7a 3c 3a 5e d8 3d ba 37 2f bd
       -0.024460068 0.015270639 0.10564847 -0.042777754
000340 bb 17 a0 bd bd 06 2f 3e 13 2d f5 bc 14 b4 78 3d
       -0.07817026 0.17092414 -0.02992872 0.06071861
000350 bc 28 26 3d ed 87 84 bd 6a ea d4 bc 3c fc ed bc
       0.04056619 -0.06471238 -0.025990684 -0.029050939
000360 81 dc 1a bc a6 ca 06 3e 67 2b 9f 3e f3 f9 67 bd
       -0.009451986 0.13163242 0.310878 -0.056634855
000370 80 9a 81 bd 57 48 9c 3e 4f d7 b7 bd e8 54 16 bd
       -0.06328297 0.3052394 -0.08976614 -0.036702067
000380 de 4e 18 bd 76 d0 27 bb 8e a7 77 bd 00 06 54 3c
       -0.03718459 -0.002560643 -0.060462527 0.012940884
000390 a7 80 5f bd e8 9e 29 bd da e8 98 bd 2b 4b ee 3c
       -0.05456605 -0.04141131 -0.07466288 0.029088577
0003a0 0b 4c 09 3d 9d 7c cd bb 00 7e 08 bd 26 91 95 3c
       0.033519786 -0.0062709586 -0.033323288 0.018257689
0003b0 c8 e2 5b 3d a3 bb fb 3b 8a 74 27 3d bb 2e 29 3e
       0.053683072 0.00768228 0.040882625 0.16521733
0003c0 68 de f1 3b 97 ee d8 bd 14 bb 23 3d de 35 3a bc
       0.007381249 -0.105923824 0.039973333 -0.011365382
0003d0 3e 33 b9 3d cf cc 20 bd d8 c3 86 bc 32 06 db bd
       0.09042977 -0.03925782 -0.016450807 -0.10694541
0003e0 3f ad 3b 3c 5e d3 e9 3c d0 e2 77 bd ae 3b 8b bc
       0.011454879 0.02854317 -0.06051904 -0.01699623
0003f0 c4 d1 e1 bd 51 09 c3 3c 06 59 98 3d 92 61 f2 bd
       -0.11026338 0.023808153 0.07438855 -0.11835016

conv2.bias f4 [32]
000000 f7 4a 91 3c 3b a6 4d 3d da 5d 39 3c 44 b1 8a bb
       0.017735941 0.050207358 0.01131388 -0.0042325575
000010 81 2c be bb 77 c4 09 bd d6 8f f1 3d 6f a2 ef 3d
       -0.005803645 -0.03363463 0.11795013 0.117009036
000020 86 9e 6f 3c 3c 35 f9 3a 49 c3 9d 3b c2 21 0b 3d
       0.014625197 0.0019013057 0.0048145396 0.03396774
000030 1c c1 95 3c 5e 6f 11 3d 6e 34 80 3c c0 b7 5c 3d
       0.018280558 0.0355066 0.01565 0.053886175
000040 0c b6 9a 3b 0f d9 83 3d 10 08 e0 bd 9b 75 b3 bd
       0.0047214087 0.06437885 -0.10939038 -0.08762666
000050 c5 b1 fc bd 96 fd 9a bc 21 df 8d bd 18 c9 97 3d
       -0.12338594 -0.018919747 -0.06927324 0.074114025
000060 4d 3b 2f 3e 27 c9 d9 3c d4 4d 3a bd 0f a3 02 be
       0.17112465 0.026585175 -0.04548438 -0.12757514
000070 fc f8 31 3d c0 cc d9 bd db 5f 80 bd bc 45 fa bc
       0.04345034 -0.10634756 -0.06268283 -0.03055083

conv3.weight f4 [16, 32, 3]
000000 30 a2 00 bd 94 34 bb ba 1f 61 4d bc 60 77 a4 bd
       -0.031404674 -0.0014282637 -0.0125353625 -0.080305815
000010 78 a3 92 3c 3b 96 4c bd 90 74 9b 3c bf ca fc 3d
       0.017900214 -0.04994796 0.01897648 0.12343358
000020 92 ba c9 bd 15 f5 55 bd b8 5e b3 3d 74 0a d8 bd
       -0.098500386 -0.05223568 0.087583005 -0.10548869
000030 4e fc 91 bd 33 46 89 bb 43 56 ae bd f4 5d 74 3c
       -0.071282014 -0.0041892766 -0.08512547 0.014914978
000040 08 91 ec bc 1f 39 93 3d 00 11 51 bd e5 e0 b2 3d
       -0.02887775 0.07188629 -0.051041603 0.087343015
000050 e4 1f 98 3c 32 e8 8f bd 4a a8 12 3e 19 07 13 bb
       0.018569894 -0.070267096 0.1432201 -0.002243465
000060 c9 d2 2f 3d d4 e3 c2 bd 7c 2b 90 3c 0c 16 c9 bd
       0.04292563 -0.09516111 0.01759886 -0.09818658
000070 ee c4 db 3b aa 66 83 bd 52 88 55 3c ea 07 62 3d
       0.0067068255 -0.06416066 0.01303299 0.05518333
000080 42 60 e2 3d 22 50 a2 bc 6d 3d 9e bd ea 04 b2 3d
       0.11053516 -0.0198136 -0.0772656 0.086923435
000090 18 ca 5c 3d a7 7b 21 3e 4e 33 0f be 31 6d ae bd
       0.05390367 0.15769826 -0.13984415 -0.0851692
0000a0 be e4 9f 3d c8 56 8a 3c ee 24 58 bd 4f 4d 34 3d
       0.07807301 0.016887084 -0.052769594 0.04401904
0000b0 cd c6 ac bd 00 43 ec b9 e0 d5 47 bd 2c cc 7a 3d
       -0.08436356 -0.00045063347 -0.04878795 0.06122987
0000c0 06 41 3b 3c 53 0c 29 3d ee 0a ea 3c b4 a2 f3 bd
       0.011429077 0.04127152 0.028569665 -0.118962675
0000d0 63 3e ed 3d 89 c0 85 3d a6 25 ad 3d fa a9 32 3d
       0.11584165 0.06530864 0.084544465 0.043619134
0000e0 28 43 12 be 2c 40 55 bd 5c 2b 5d bd 28 a5 12 be
       -0.1428343 -0.052063152 -0.05399643 -0.14320815
0000f0 d8 12 06 bd 5b 69 0c bd 01 0a 38 be c8 44 5c bd
       -0.032732815 -0.034280162 -0.17972566 -0.053776532
000100 81 6c a5 3d 2a f4 87 3c 04 ec 79 bd 2d b3 05 3c
       0.08077336 0.016595919 -0.061016098 0.008160395
000110 22 15 08 be 4a 92 d0 bd 9b d3 4c bd 20 01 34 bc
       -0.13289312 -0.101841524 -0.05000649 -0.010986596
000120 db 91 11 be 40 82 7f 3d a3 21 8a 3d 23 e5 88 3d
       -0.14215796 0.062380075 0.06744697 0.06684329
000130 66 86 6e 3d fe b7 35 bd 78 ce 63 3d d3 00 1c 3d
       0.05823364 -0.04436492 0.055616826 0.038086724
000140 3f f6 9a 3c 86 a1 01 bd da 96 80 bd 78 c9 83 bd
       0.018916247 -0.03164818 -0.06278773 -0.064349115
000150 ab b3 13 bd b7 d3 5d bc 08 f7 33 3d 71 eb 7a 3b
       -0.036060017 -0.013539246 0.04393676 0.0038287307
000160 ba c2 03 3e 5e a2 bd bd 8f 98 33 bd 1b d9 1d bc
       0.12867251 -0.09259485 -0.043846663 -0.0096342815
000170 c4 c1 b2 3c 06 15 7c bd 90 34 99 bd 93 19 7d bd
       0.02182091 -0.061543487 -0.074807286 -0.061791968
000180 99 0b bf bd 24 c7 ec 3c 60 e1 d4 bd d6 7f 67 bc
       -0.09328384 0.028903551 -0.10394549 -0.0141296
000190 58 03 7d 3d ce 3c f3 bd a1 59 9d bd b0 b4 5c 3b
       0.061770767 -0.11876832 -0.07683111 0.0033677034
0001a0 f0 f7 c9 3c 16 bd b6 bd a0 4f cb 3d dc 7a 10 be
       0.024654359 -0.08922784 0.09927297 -0.14109367
0001b0 85 66 98 3d 2d 51 60 3b 79 de 6f be 8f 4b 1f 3d
       0.07441429 0.0034228072 -0.2342471 0.038890418
0001c0 c6 0d 8f 3d 57 d1 b2 3d f9 a5 55 3d 44 cf 1e bd
       0.06985049 0.08731335 0.052160237 -0.038771883
0001d0 bc f0 56 3b c8 9d 4a 3d 57 50 fa 3a 04 07 ce 3c
       0.0032797297 0.04946688 0.001909743 0.02514983
0001e0 5b fe ab 3d dc 68 5e bd bb f5 60 bc 06 22 9b 3d
       0.08398124 -0.05429922 -0.013730462 0.07574849
0001f0 32 b0 37 bb bb ed f9 bd 2a 6b 9a 3c 1b 77 57 bd
       -0.0028028605 -0.122035466 0.018849928 -0.052603822
000200 99 d2 93 bd 6f 80 ee bb 07 6a 92 bc 72 c7 9d bd
       -0.07217903 -0.007278494 -0.017872823 -0.07704057
000210 9c 1e 05 3d 11 83 0c 3e 8d 3c 43 bd ba 1c 81 3d
       0.032499894 0.13721873 -0.047665168 0.06304307
000220 c0 ef 1c 3b 10 db f6 3c 4f 14 79 bd 20 71 ac 3d
       0.0023946613 0.030133754 -0.060810383 0.084200144
000230 41 f2 9f bd 60 e0 6c 3b c8 05 8f 3d a8 f7 27 3d
       -0.07809878 0.003614448 0.069835246 0.041007668
000240 60 89 c0 3d 61 bf f0 bc 6b 6e a8 3b b7 44 4c bd
       0.09401202 -0.029388132 0.005140116 -0.04987022
000250 41 e1 ed 3d 2a 4f a3 bd 75 02 aa 3d e6 4c 04 bd
       0.116152294 -0.07974084 0.0830125 -0.0322999
000260 15 ef 09 be c6 af 91 3d 89 75 ba 3d a0 78 25 bd
       -0.13470109 0.07113604 0.09104449 -0.04039824
000270 f4 5a 36 bd d7 63 27 3d e5 3c 0f be 11 33 a0 3d
       -0.044520333 0.0408667 -0.13988073 0.0782224
000280 2c 2c 57 bc 4c 6b 1f 3d ac 41 8c bd be ed 27 bd
       -0.01313309 0.038920686 -0.068484634 -0.040998213
000290 bc dd 3b 3c 7b 60 21 3c 7c f8 e9 bc fb 27 4f 3d
       0.01146644 0.009849663 -0.02856087 0.050575238
0002a0 14 7a bb 3c 8b 47 0a 3e d2 52 95 bd b1 b5 b3 bc
       0.02288536 0.13503854 -0.07291187 -0.021937223
0002b0 a5 05 b0 bb a5 8a 96 3d 37 3f aa 3d bc 29 b3 3d
       -0.0053717666 0.07350663 0.083128385 0.087481946
0002c0 8c 0f 24 bd 1d 09 db ba 6c b8 23 bd ad 05 d3 bd
       -0.04005389 -0.001671109 -0.0399708 -0.10303817
0002d0 db 75 c6 bd d5 a8 14 3a 0a 6a 32 3d b0 20 5b bd
       -0.09690448 0.000567091 0.043558158 -0.05349797
0002e0 b7 79 88 3d fe fc 2b be 30 e0 ab 3c 4a 98 42 3d
       0.0666384 -0.16795728 0.020980924 0.047508515
0002f0 28 a6 09 be 40 1e 26 3d b8 09 fb 3c 04 bd 80 bc
       -0.1344229 0.040556192 0.030644283 -0.01571513
000300 72 4b 80 bd 69 cf b5 bc 49 39 4d be 15 2f cc 3c
       -0.0626439 -0.022193627 -0.20041384 0.024924794
000310 44 be 5d bd eb df 23 be a4 a9 94 bd e4 18 83 bd
       -0.05413653 -0.16003387 -0.07258919 -0.06401232
000320 84 eb 79 bd 7c 3d 9f bd 6f 5b 35 3c e1 aa 7d be
       -0.06101562 -0.07775399 0.011069163 -0.24772216
000330 e8 46 28 3d df 87 a3 bd fb cb 3c be c7 68 f1 3c
       0.041083246 -0.079849 -0.18437187 0.029468907
000340 b3 e2 87 bc 42 8f 87 3c 84 4b 8e bd e7 da 25 bd
       -0.01658759 0.016547803 -0.06947997 -0.040491965
000350 4a 7e 23 be f6 cd c0 3d 8b 68 88 3d c0 ad 21 be
       -0.15966144 0.09414284 0.06660565 -0.15788937
000360 60 c6 a4 3d 53 46 81 bc b0 04 dd 3c 38 de cd bd
       0.080456495 -0.015780604 0.026979774 -0.100521505
000370 0a df 5c bc cf 61 4d be 4c 24 7c 3d 36 59 e6 bd
       -0.013480911 -0.20056842 0.061558053 -0.112474844
000380 8d c7 87 bd 88 ed d8 bd 08 d7 07 3d e4 ac 9e 3d
       -0.06629858 -0.105921805 0.033164054 0.0774782
000390 2c bc a6 3c 37 8e 0f 3e e1 7d 16 bd 80 b4 3b bb
       0.0203534 0.14019094 -0.03674114 -0.0028641522
0003a0 6a 23 c1 3d d0 e2 0a 3d ed 4b fc 3c 22 86 cd 3d
       0.09430583 0.03390771 0.030797923 0.100353494
0003b0 26 fb 8d be 88 a8 68 3c dc 07 8b 3c 1c 35 57 3d
       -0.27730674 0.014200337 0.016971521 0.052540883
0003c0 a1 4f a7 3d 27 11 7d 3d b1 38 83 3d 1e 3d ac bd
       0.08169485 0.061783936 0.064072974 -0.08410095
0003d0 1d 00 12 bd 56 45 03 be a0 a4 4f bd 19 66 11 be
       -0.03564464 -0.12819418 -0.050694108 -0.14199103
0003e0 2a 76 6b be 5a d4 4e 3d 27 a4 e6 bd 63 27 19 be
       -0.22994295 0.050495483 -0.11261778 -0.14956431
0003f0 b3 b4 af bd d5 81 89 bd c4 40 56 be 54 83 52 bd
       -0.085793875 -0.067142166 -0.20923144 -0.051394776

conv3.bias f4 [16]
000000 96 a7 a6 3d b3 71 a7 3d fd ac 1a bd 2a 02 4e 3e
       0.08137433 0.08175983 -0.03776263 0.20118013
000010 3b b1 15 bd 1e c9 99 bc e9 b0 f7 3b f4 50 71 bd
       -0.036545973 -0.018772658 0.007558931 -0.058915094
000020 eb 45 a1 3d aa 6c 9d bc 56 45 89 bd 0c 7e ec bd
       0.07874664 -0.019216854 -0.06702678 -0.11547479
000030 2e 8f 8d bd 87 c0 3a 3d fc cc 00 bd 26 7f c1 3c
       -0.06912075 0.045593765 -0.03144549 0.0236202

convs.0.weight f4 [64, 1, 3]
000000 1e a9 a0 3e 61 12 89 be 9d 1e c5 be b0 3f c0 bd
       0.31379026 -0.26771834 -0.3849992 -0.093871474
000010 98 f6 d1 3e 95 f3 8b be b6 44 32 bf df 9e a3 3e
       0.4100845 -0.27334276 -0.69636095 0.31957147
000020 b1 d8 10 3f a3 4e b2 3d c2 41 96 3e fe 99 32 3f
       0.56580645 0.08706405 0.29347044 0.69766223
000030 8b 44 1c b8 22 b2 d5 be df d0 15 3f 88 6c 3b 3d
       -3.7257134e-05 -0.41737467 0.58521837 0.0457578
000040 c0 ff c0 3d 15 7c 59 3f cf 6f 3f 3d 3e 47 39 be
       0.094237804 0.8495496 0.04673749 -0.18093583
000050 18 ce 31 bf da da b4 be 88 27 50 be e0 5c cd be
       -0.694551 -0.3532322 -0.2032758 -0.4010992
000060 d5 f1 57 b9 f6 a7 00 bf a4 0c 02 3f 44 73 7d bd
       -0.00020594087 -0.5025629 0.5080054 -0.061877504
000070 44 03 3b be 2d 73 3b 3f ad de ae 3e 9f 31 f9 3e
       -0.18262964 0.7322262 0.34154263 0.4867067
000080 4f 90 31 be 20 8b 7e 3e 9a 50 2a be 14 98 19 bf
       -0.17340206 0.2485776 -0.1663231 -0.5999768
000090 62 ac 86 3e 81 90 1c bf 4f 84 2b be 49 ca 0c bf
       0.26303393 -0.61157995 -0.1674969 -0.5499616
0000a0 a1 68 74 b9 dd 27 be be 37 81 cb 3e 5a b0 cb 3e
       -0.0002330863 -0.37139788 0.3974702 0.39782983
0000b0 3c cf bc 3e 8e 28 be 37 58 4f 1d be 9b 39 1d 3f
       0.36876857 2.266865e-05 -0.15362298 0.61416024
0000c0 05 24 e2 bd 36 bc 13 3e ee b4 b1 be 45 3e e2 be
       -0.110420264 0.14427266 -0.3470835 -0.44188133
0000d0 93 cd c1 39 b9 56 bb be 8c fa 9d bd 69 b8 e0 3c
       0.00036964993 -0.36589602 -0.07713804 0.027431684
0000e0 74 9e 21 be a0 b8 e9 3e 79 56 2f be 53 2d 15 be
       -0.15783101 0.4564867 -0.1712283 -0.14568071
0000f0 c2 d9 bf 3c 91 d2 f6 3e 42 69 d3 be 33 e8 dc be
       0.023419265 0.48207524 -0.41291243 -0.43145904
000100 1e f6 32 3e 04 e8 dc be 8b 29 e0 3e f8 90 88 3e
       0.17476699 -0.43145764 0.43781695 0.26673102
000110 59 e8 12 3f aa 6a 07 ba 99 b1 0f bf 2d 49 c3 3e
       0.57385784 -0.00051657355 -0.5613037 0.38141766
000120 c6 d0 09 3e 33 43 53 3e 29 9a 41 3f e5 4e eb be
       0.13458547 0.20631103 0.75625855 -0.4595863
000130 67 24 86 3e 55 fa 6c be 9a e6 d8 3e 71 03 17 bf
       0.26199648 -0.23142369 0.42363435 -0.58989626
000140 ed 20 ea be a2 4e 5a ba 50 57 39 bf 77 7f 3d 3f
       -0.45728245 -0.0008327757 -0.72398853 0.7402262
000150 2b 98 ba 3e b5 1e f2 3e 17 ee 1e 3f 0a d9 36 b8
       0.3644422 0.47289053 0.62082046 -4.3594315e-05
000160 35 d9 ae be 2c 4e cf 3e 19 62 f4 be de 5f a8 be
       -0.3415009 0.40489328 -0.47731093 -0.3288564
000170 fa 8b a4 3e 88 ab 9b ba 80 1d 1c bf b0 d2 fd 3e
       0.32138044 -0.0011876682 -0.60982513 0.49574804
000180 f2 7f 69 3e 06 c1 22 bf 91 14 55 3f 09 e7 b8 be
       0.22802714 -0.6357578 0.83234507 -0.36113766
000190 66 a0 05 be 28 58 10 3e 5a d5 cf be c0 64 62 bc
       -0.13049468 0.14096129 -0.40592462 -0.013817966
0001a0 f2 8d 0d be 8f ad 74 ba 1c 58 01 bf 80 ca ae 3e
       -0.13823679 -0.00093337236 -0.5052507 0.3413887
0001b0 ce e4 12 bf 9b ab 52 bf 35 fe 41 be 43 0d 9b be
       -0.5738038 -0.822931 -0.18944629 -0.30283555
0001c0 1c 4a df be c6 ac 3a 3d e9 9f fa be 67 fa 0d 3e
       -0.43611228 0.045574926 -0.48950127 0.13865052
0001d0 bf 80 e2 3d e8 00 85 3e 75 e3 84 3e ee 8d 48 3f
       0.110597126 0.25977254 0.25954786 0.7834157
0001e0 e3 05 10 bf f7 d4 2f 3a cf 50 a5 3e 8a 8d 1f bf
       -0.5625898 0.00067074544 0.32288215 -0.62325346
0001f0 f0 ca af 3e f8 57 99 be c5 3c a8 be 52 da 10 be
       0.34334517 -0.29949927 -0.32858863 -0.14145783
000200 ac 5a 81 be 61 da 5d 3e 50 ad 1a bf bd a3 48 bf
       -0.2526449 0.21665336 -0.60420704 -0.78374845
000210 90 c7 e6 3e 0e 1a e9 bd f1 19 56 3f 1f c5 2e bd
       0.4507413 -0.11381923 0.83633333 -0.042668458
000220 94 ce 03 3e 99 ea c0 be fc a7 10 bf a4 a7 5b be
       0.12871772 -0.37678984 -0.56506324 -0.21450669
000230 df 00 93 be 40 ad 14 bc c4 f7 bf bd 3c 5c 22 3e
       -0.28711602 -0.009074509 -0.093734294 0.15855497
000240 35 14 83 3e df 68 07 bf 73 54 01 3f a7 28 2d bc
       0.25601354 -0.52894396 0.50519484 -0.010568774
000250 e3 21 17 3e 18 c7 dd be 78 99 a9 b9 78 45 a1 3e
       0.1475902 -0.4331596 -0.00032348535 0.31498313
000260 e2 97 e9 be 4b 68 45 3e 7e 5a d0 be ec c2 7b 3e
       -0.4562369 0.19278066 -0.4069404 0.24586076
000270 53 6b e8 3e ea 1e 04 bf ae 81 0a bf 0e 2a 0c 3f
       0.45394382 -0.5160967 -0.54104125 0.5475167
000280 e5 d7 e4 3e 85 2a da 3e 55 77 d9 3c ef 2e a1 3e
       0.44695964 0.42610565 0.02654616 0.3148112
000290 b9 5e d9 3c cb 27 82 3d 3b ff d9 be b8 63 05 bf
       0.026534425 0.06355246 -0.42577538 -0.52105284
0002a0 fd d1 e9 be a6 47 ca be 4c 1b 0b be 80 6b f6 bc
       -0.4566802 -0.39507788 -0.13584632 -0.030080557
0002b0 52 9c e5 be da 80 11 be 3a 66 58 ba 21 00 13 bf
       -0.44845825 -0.14209309 -0.0008254979 -0.5742207
0002c0 0b 91 9a 3e 73 e6 9c bb 01 41 db 3e bc e7 9c bb
       0.30188784 -0.004788214 0.42823032 -0.004788367
0002d0 88 ed 84 b9 2d a8 ef be 37 8e ef 3e 29 4a 25 be
       -0.00025353977 -0.46807995 0.4678819 -0.16141571
0002e0 17 16 7e be a6 2c 34 bf 65 5f 4d bf ce ea 3e bf
       -0.24813114 -0.7038063 -0.80223686 -0.74577034
0002f0 e1 50 48 bf 1b 0b 62 3e c4 69 19 bf cd ad 24 3e
       -0.7824841 0.22074549 -0.5992701 0.16081925

convs.0.bias f4 [64]
000000 7f 0b 08 bd ac 3b 9e 3d 28 c2 15 3f 53 9a d9 3d
       -0.03321409 0.07726225 0.58499384 0.10625138
000010 33 d0 0f 3f a2 de 10 3f 73 97 39 be a0 07 de bd
       0.5617706 0.5658971 -0.1812418 -0.10841298
000020 9a 71 3f 39 2f f1 65 3b d3 57 f8 be 27 03 0c bf
       0.000182575 0.0035086384 -0.48504505 -0.5469231
000030 36 eb 29 3f 01 27 be 3e 7e 15 c3 b6 1a de 77 3e
       0.6637453 0.37139133 -5.813955e-06 0.24205819
000040 6e ba ef 3e a9 2d 29 3f 35 2d 8f 3e 4e 37 5f be
       0.46821922 0.66085297 0.27964178 -0.21798441
000050 f6 2f 20 3f f3 97 18 3f 07 df 33 3d f3 3b 1a 3f
       0.6257318 0.59606856 0.043913867 0.60247725
000060 7a d4 c7 3e f7 df 1a bf 8c fd 01 be 11 4d c1 3e
       0.39029294 -0.60497993 -0.12694377 0.3775411
000070 73 72 05 3f 54 8a 20 3f 87 88 db be d1 6e 76 3e
       0.5212776 0.6271107 -0.428776 0.2406571
000080 71 ae a8 ba 2a b6 cb be 50 cf 6a be 44 c1 27 3e
       -0.001286937 -0.39787418 -0.22930646 0.16382319
000090 a9 90 e1 3e 20 0b 29 3f 2d 43 e3 3e 32 68 d9 3e
       0.4405568 0.660326 0.4438719 0.42462307
0000a0 5a dc 6f 3e 6a 35 ad b7 34 a7 39 be e7 6c 02 3f
       0.23423901 -2.064808e-05 -0.18130189 0.5094742
0000b0 33 dd cd 3e 32 60 e5 3e de ca e6 be 4e de f9 be
       0.40207824 0.44799954 -0.4507665 -0.48802418
0000c0 80 9e 97 3e f6 2a 86 b8 b3 96 d8 ba 2c 92 75 3d
       0.29613113 -6.39762e-05 -0.0016524404 0.059953853
0000d0 af 60 b2 3d 6b ca 16 3e 01 34 16 3f 4b 5c 3a 3e
       0.08709847 0.14725654 0.586731 0.1819927
0000e0 17 20 1c 3f 6a 3b dc be 2e d8 00 3f ac 25 a6 37
       0.60986465 -0.4301408 0.50329864 1.9806284e-05
0000f0 c0 4a 84 39 67 a4 0d 3f 82 45 c2 3e 1b 5b 27 bf
       0.00025232695 0.55328983 0.37943655 -0.6537339

convs.3.weight f4 [32, 64, 3]
000000 79 76 78 3d e1 d2 e1 bc 23 6e c5 bd d8 f0 7d bd
       0.06065986 -0.027566375 -0.096401475 -0.061997265
000010 ba d6 7d bd 0b 49 3a 3e c8 51 3e bd fb b0 60 bc
       -0.061972357 0.18191926 -0.04646471 -0.01371407
000020 52 8f 05 3e d9 1a 03 bd af 05 9d bc 67 de 27 3e
       0.13042954 -0.032008026 -0.01916775 0.16393434
000030 e6 4e 7d 3d 43 ba c6 3d 19 a8 53 3e b3 a0 04 3c
       0.06184282 0.09703495 0.20669593 0.008094954
000040 1f 8c d1 bd f7 be 51 3e 77 6c 8a 3d 28 43 36 bc
       -0.10231804 0.20483004 0.06758969 -0.01112441
000050 00 0f 55 3b 40 94 64 3d e2 0b 7e bd 5a 27 93 bd
       0.0032510161 0.055805445 -0.06202305 -0.0718524
000060 ad 3d b0 3b 33 06 34 3e 13 a2 98 3e 1d 06 5f 3d
       0.005378446 0.1758049 0.29811153 0.05444919
000070 80 42 44 bc ab 2e 8b 3e 13 84 d8 3c e1 89 01 bd
       -0.011978745 0.27184042 0.026430165 -0.031625632
000080 b8 42 cb bd f3 19 03 bd 33 ab 6b 3c 14 15 51 bd
       -0.09924835 -0.03200717 0.014384079 -0.051045492
000090 8f e0 db 3c 9c ca 80 bc 67 99 57 3d b0 f8 ab bd
       0.026840476 -0.015721612 0.05263653 -0.08397043
0000a0 23 2c 56 3e ff 80 a4 3d b9 7b fc bc 17 00 06 3d
       0.20915274 0.080324166 -0.030820714 0.03271493
0000b0 5b 1f 35 3c de eb bc bc 2e ef dd bc 75 5b 5e 3e
       0.011054839 -0.023061689 -0.027091589 0.21714576
0000c0 13 22 e9 38 63 13 88 bd a5 1a 06 3e 63 a2 43 3c
       0.000111166526 -0.06644323 0.13096102 0.0119405715
0000d0 35 20 4e 3e 49 e9 de 3d 0d 8b f2 3c ca 09 f8 3c
       0.20129474 0.10884339 0.02960732 0.030278105
0000e0 8d 5e da 3d f2 1c 9d 3d fc 5e a5 bc 70 d5 d7 bd
       0.106625654 0.076715365 -0.020186894 -0.10538757
0000f0 83 df af 3c ab 0a 83 3c ab 24 d9 3d dd 58 0f bd
       0.021468883 0.015996298 0.10602697 -0.034996856
000100 49 43 c4 bb 9b b9 c4 3c 41 c9 01 bd 9a c1 11 bd
       -0.0059894663 0.024014285 -0.03168607 -0.035585023
000110 89 08 1c 3e bb c2 38 3c 7e cd a0 3d 1e b3 7c 3e
       0.15237631 0.011276896 0.078516945 0.24677703
000120 c1 07 99 3c 24 ae 0c 3d dc 75 10 3e fb 70 01 bd
       0.018680455 0.03434576 0.1410746 -0.031601887
000130 d1 c9 60 3d 80 c6 c7 3a 93 f5 0d bc d2 cb cd 3b
       0.054879967 0.0015241653 -0.0086645065 0.006280401
000140 e7 20 9c bd 5f e2 94 3d c5 aa af 3d 22 da 3f 3e
       -0.07623463 0.07269739 0.085774936 0.18735555
000150 97 02 f1 bb 35 c6 63 bc f9 af 26 3e 32 ee c2 bb
       -0.007355045 -0.013902237 0.16278066 -0.0059488053
000160 db 81 e3 3d 96 37 61 3e 80 1b 40 bb 53 02 08 bd
       0.11108752 0.2199386 -0.0029313266 -0.03320534
000170 22 3e 52 3d 24 e8 96 3d e2 b2 70 3d 42 0e 9b 3e
       0.051328786 0.07368496 0.058764346 0.30284315
000180 e9 88 16 3d eb cb 84 3b e2 2c 9f 3e 72 94 44 bd
       0.03675166 0.004052629 0.3108893 -0.04799313
000190 02 cf d6 bc 51 64 01 bd 54 e9 65 bc e0 15 39 bc
       -0.026221756 -0.03158981 -0.014032681 -0.011296719
0001a0 48 07 81 bd e3 03 a1 3d 33 dd 3c 3e ee 29 54 3e
       -0.06300217 0.078620695 0.18443756 0.2071912
0001b0 47 e9 a5 bd 31 5c 9c bb f2 0b 8f bc fd 99 9d 3c
       -0.08101135 -0.0047717323 -0.01746175 0.019238466
0001c0 d2 88 f8 3c 38 e2 27 3e 94 25 5a bd 0e a9 18 bd
       0.030338679 0.1639489 -0.053258494 -0.037270598
0001d0 e8 51 14 3e 78 8e 4b 3d 89 cf 2b bc 31 4a 38 3e
       0.1448437 0.049696416 -0.010486492 0.17997052
0001e0 e9 1d 12 3e 2a bc ed 3b f0 44 1d 3e 42 78 b3 3b
       0.14269222 0.007255097 0.15358329 0.0054769823
0001f0 00 99 58 3d 45 9d 7a 3e c8 f6 11 bc 21 9a 36 bd
       0.052880287 0.24474056 -0.008908935 -0.044580583
000200 a2 e0 83 3d 3a 5d 81 3d a7 ee dd 3c 55 db 91 bd
       0.0643933 0.0631661 0.027091337 -0.071219124
000210 5f f4 40 bd 2c c2 b0 bd 1a 2b 0c 3e 45 1c f9 bc
       -0.04710805 -0.08630785 0.13688317 -0.030408988
000220 1d 85 6e bd 0a c6 07 3e b0 0d 64 bd 2c c7 20 bd
       -0.058232415 0.1325914 -0.055677116 -0.039252445
000230 88 69 6f 3c 1f 43 51 bd 6e e4 84 3d 78 6a 88 3d
       0.014612563 -0.051089402 0.06488882 0.06660932
000240 c6 9b b3 3c 3f 45 83 ba 16 9a 3c 3e b3 ae 68 bd
       0.021924865 -0.0010015144 0.18418154 -0.05680723
000250 b0 7a fd bc 5a d4 b6 3d 7e 85 8e bc 1c 08 8d 3d
       -0.030942291 0.089272216 -0.017397638 0.06886312
000260 7a 27 3a 3e dc 1a e9 ba 51 e6 78 bd 89 be 05 3e
       0.18179122 -0.0017784494 -0.06076652 0.13060965
000270 ff a7 99 3d 3d 47 3b 3d 43 a4 63 bd 76 9e c7 bc
       0.07502746 0.045722235 -0.055576574 -0.024367552
000280 50 3f a3 bd e8 10 67 bc 14 db cc 3c 03 a2 00 3d
       -0.0797106 -0.014103152 0.025006808 0.031404506
000290 25 30 f8 3c 26 75 82 3d fc ad 0d 3d 78 3e c6 bc
       0.030296395 0.063700005 0.034589753 -0.02419971
0002a0 65 f5 40 bd 9c 63 59 3d bc 0d 90 3d 1a 9d 2f bd
       -0.047109026 0.05307351 0.070338696 -0.042874433
0002b0 b8 6e 09 bc 70 d9 bb 3c 7e f2 40 bd 7e 21 33 3e
       -0.008388214 0.02293083 -0.04710626 0.17493245
0002c0 e0 68 6f 3e 8b 58 a1 bc be 0d 47 3d 45 03 4f 3e
       0.2337985 -0.01969554 0.04859709 0.20216091
0002d0 5c 74 92 bb fe 18 18 3e 8c c0 80 3e 23 fd 88 bd
       -0.0044694375 0.14853284 0.25146902 -0.06688907
0002e0 fb 5f cb 3d 11 87 87 3d de 33 79 be db 33 d3 bd
       0.09930416 0.06617559 -0.24336192 -0.10312625
0002f0 50 ef 64 be 42 3f 18 bd 90 1b 11 bd ac 78 6a 3d
       -0.22356915 -0.037169702 -0.035426676 0.057243988
000300 1d e5 3b bc d1 92 3a bd 63 c7 1f be f2 67 6c bd
       -0.011468199 -0.04555017 -0.15603404 -0.057716317
000310 3b cf 09 bc c3 96 33 3e 58 3a 1b bd 37 aa 94 3b
       -0.008411224 0.1753798 -0.037897438 0.0045368928
000320 37 ed 21 3e d2 13 a5 bd 4c f2 69 bd ab f3 83 3e
       0.15813147 -0.08060421 -0.057115838 0.2577184
000330 7b 60 c8 bc b4 31 7a 3c 3a 5e d8 3d ba 37 2f bd
       -0.024460068 0.015270639 0.10564847 -0.042777754
000340 bb 17 a0 bd bd 06 2f 3e 13 2d f5 bc 14 b4 78 3d
       -0.07817026 0.17092414 -0.02992872 0.06071861
000350 bc 28 26 3d ed 87 84 bd 6a ea d4 bc 3c fc ed bc
       0.04056619 -0.06471238 -0.025990684 -0.029050939
000360 81 dc 1a bc a6 ca 06 3e 67 2b 9f 3e f3 f9 67 bd
       -0.009451986 0.13163242 0.310878 -0.056634855
000370 80 9a 81 bd 57 48 9c 3e 4f d7 b7 bd e8 54 16 bd
       -0.06328297 0.3052394 -0.08976614 -0.036702067
000380 de 4e 18 bd 76 d0 27 bb 8e a7 77 bd 00 06 54 3c
       -0.03718459 -0.002560643 -0.060462527 0.012940884
000390 a7 80 5f bd e8 9e 29 bd da e8 98 bd 2b 4b ee 3c
       -0.05456605 -0.04141131 -0.07466288 0.029088577
0003a0 0b 4c 09 3d 9d 7c cd bb 00 7e 08 bd 26 91 95 3c
       0.033519786 -0.0062709586 -0.033323288 0.018257689
0003b0 c8 e2 5b 3d a3 bb fb 3b 8a 74 27 3d bb 2e 29 3e
       0.053683072 0.00768228 0.040882625 0.16521733
0003c0 68 de f1 3b 97 ee d8 bd 14 bb 23 3d de 35 3a bc
       0.007381249 -0.105923824 0.039973333 -0.011365382
0003d0 3e 33 b9 3d cf cc 20 bd d8 c3 86 bc 32 06 db bd
       0.09042977 -0.03925782 -0.016450807 -0.10694541
0003e0 3f ad 3b 3c 5e d3 e9 3c d0 e2 77 bd ae 3b 8b bc
       0.011454879 0.02854317 -0.06051904 -0.01699623
0003f0 c4 d1 e1 bd 51 09 c3 3c 06 59 98 3d 92 61 f2 bd
       -0.11026338 0.023808153 0.07438855 -0.11835016

convs.3.bias f4 [32]
000000 f7 4a 91 3c 3b a6 4d 3d da 5d 39 3c 44 b1 8a bb
       0.017735941 0.050207358 0.01131388 -0.0042325575
000010 81 2c be bb 77 c4 09 bd d6 8f f1 3d 6f a2 ef 3d
       -0.005803645 -0.03363463 0.11795013 0.117009036
000020 86 9e 6f 3c 3c 35 f9 3a 49 c3 9d 3b c2 21 0b 3d
       0.014625197 0.0019013057 0.0048145396 0.03396774
000030 1c c1 95 3c 5e 6f 11 3d 6e 34 80 3c c0 b7 5c 3d
       0.018280558 0.0355066 0.01565 0.053886175
000040 0c b6 9a 3b 0f d9 83 3d 10 08 e0 bd 9b 75 b3 bd
       0.0047214087 0.06437885 -0.10939038 -0.08762666
000050 c5 b1 fc bd 96 fd 9a bc 21 df 8d bd 18 c9 97 3d
       -0.12338594 -0.018919747 -0.06927324 0.074114025
000060 4d 3b 2f 3e 27 c9 d9 3c d4 4d 3a bd 0f a3 02 be
       0.17112465 0.026585175 -0.04548438 -0.12757514
000070 fc f8 31 3d c0 cc d9 bd db 5f 80 bd bc 45 fa bc
       0.04345034 -0.10634756 -0.06268283 -0.03055083

convs.7.weight f4 [16, 32, 3]
000000 30 a2 00 bd 94 34 bb ba 1f 61 4d bc 60 77 a4 bd
       -0.031404674 -0.0014282637 -0.0125353625 -0.080305815
000010 78 a3 92 3c 3b 96 4c bd 90 74 9b 3c bf ca fc 3d
       0.017900214 -0.04994796 0.01897648 0.12343358
000020 92 ba c9 bd 15 f5 55 bd b8 5e b3 3d 74 0a d8 bd
       -0.098500386 -0.05223568 0.087583005 -0.10548869
000030 4e fc 91 bd 33 46 89 bb 43 56 ae bd f4 5d 74 3c
       -0.071282014 -0.0041892766 -0.08512547 0.014914978
000040 08 91 ec bc 1f 39 93 3d 00 11 51 bd e5 e0 b2 3d
       -0.02887775 0.07188629 -0.051041603 0.087343015
000050 e4 1f 98 3c 32 e8 8f bd 4a a8 12 3e 19 07 13 bb
       0.018569894 -0.070267096 0.1432201 -0.002243465
000060 c9 d2 2f 3d d4 e3 c2 bd 7c 2b 90 3c 0c 16 c9 bd
       0.04292563 -0.09516111 0.01759886 -0.09818658
000070 ee c4 db 3b aa 66 83 bd 52 88 55 3c ea 07 62 3d
       0.0067068255 -0.06416066 0.01303299 0.05518333
000080 42 60 e2 3d 22 50 a2 bc 6d 3d 9e bd ea 04 b2 3d
       0.11053516 -0.0198136 -0.0772656 0.086923435
000090 18 ca 5c 3d a7 7b 21 3e 4e 33 0f be 31 6d ae bd
       0.05390367 0.15769826 -0.13984415 -0.0851692
0000a0 be e4 9f 3d c8 56 8a 3c ee 24 58 bd 4f 4d 34 3d
       0.07807301 0.016887084 -0.052769594 0.04401904
0000b0 cd c6 ac bd 00 43 ec b9 e0 d5 47 bd 2c cc 7a 3d
       -0.08436356 -0.00045063347 -0.04878795 0.06122987
0000c0 06 41 3b 3c 53 0c 29 3d ee 0a ea 3c b4 a2 f3 bd
       0.011429077 0.04127152 0.028569665 -0.118962675
0000d0 63 3e ed 3d 89 c0 85 3d a6 25 ad 3d fa a9 32 3d
       0.11584165 0.06530864 0.084544465 0.043619134
0000e0 28 43 12 be 2c 40 55 bd 5c 2b 5d bd 28 a5 12 be
       -0.1428343 -0.052063152 -0.05399643 -0.14320815
0000f0 d8 12 06 bd 5b 69 0c bd 01 0a 38 be c8 44 5c bd
       -0.032732815 -0.034280162 -0.17972566 -0.053776532
000100 81 6c a5 3d 2a f4 87 3c 04 ec 79 bd 2d b3 05 3c
       0.08077336 0.016595919 -0.061016098 0.008160395
000110 22 15 08 be 4a 92 d0 bd 9b d3 4c bd 20 01 34 bc
       -0.13289312 -0.101841524 -0.05000649 -0.010986596
000120 db 91 11 be 40 82 7f 3d a3 21 8a 3d 23 e5 88 3d
       -0.14215796 0.062380075 0.06744697 0.06684329
000130 66 86 6e 3d fe b7 35 bd 78 ce 63 3d d3 00 1c 3d
       0.05823364 -0.04436492 0.055616826 0.038086724
000140 3f f6 9a 3c 86 a1 01 bd da 96 80 bd 78 c9 83 bd
       0.018916247 -0.03164818 -0.06278773 -0.064349115
000150 ab b3 13 bd b7 d3 5d bc 08 f7 33 3d 71 eb 7a 3b
       -0.036060017 -0.013539246 0.04393676 0.0038287307
000160 ba c2 03 3e 5e a2 bd bd 8f 98 33 bd 1b d9 1d bc
       0.12867251 -0.09259485 -0.043846663 -0.0096342815
000170 c4 c1 b2 3c 06 15 7c bd 90 34 99 bd 93 19 7d bd
       0.02182091 -0.061543487 -0.074807286 -0.061791968
000180 99 0b bf bd 24 c7 ec 3c 60 e1 d4 bd d6 7f 67 bc
       -0.09328384 0.028903551 -0.10394549 -0.0141296
000190 58 03 7d 3d ce 3c f3 bd a1 59 9d bd b0 b4 5c 3b
       0.061770767 -0.11876832 -0.07683111 0.0033677034
0001a0 f0 f7 c9 3c 16 bd b6 bd a0 4f cb 3d dc 7a 10 be
       0.024654359 -0.08922784 0.09927297 -0.14109367
0001b0 85 66 98 3d 2d 51 60 3b 79 de 6f be 8f 4b 1f 3d
       0.07441429 0.0034228072 -0.2342471 0.038890418
0001c0 c6 0d 8f 3d 57 d1 b2 3d f9 a5 55 3d 44 cf 1e bd
       0.06985049 0.08731335 0.052160237 -0.038771883
0001d0 bc f0 56 3b c8 9d 4a 3d 57 50 fa 3a 04 07 ce 3c
       0.0032797297 0.04946688 0.001909743 0.02514983
0001e0 5b fe ab 3d dc 68 5e bd bb f5 60 bc 06 22 9b 3d
       0.08398124 -0.05429922 -0.013730462 0.07574849
0001f0 32 b0 37 bb bb ed f9 bd 2a 6b 9a 3c 1b 77 57 bd
       -0.0028028605 -0.122035466 0.018849928 -0.052603822
000200 99 d2 93 bd 6f 80 ee bb 07 6a 92 bc 72 c7 9d bd
       -0.07217903 -0.007278494 -0.017872823 -0.07704057
000210 9c 1e 05 3d 11 83 0c 3e 8d 3c 43 bd ba 1c 81 3d
       0.032499894 0.13721873 -0.047665168 0.06304307
000220 c0 ef 1c 3b 10 db f6 3c 4f 14 79 bd 20 71 ac 3d
       0.0023946613 0.030133754 -0.060810383 0.084200144
000230 41 f2 9f bd 60 e0 6c 3b c8 05 8f 3d a8 f7 27 3d
       -0.07809878 0.003614448 0.069835246 0.041007668
000240 60 89 c0 3d 61 bf f0 bc 6b 6e a8 3b b7 44 4c bd
       0.09401202 -0.029388132 0.005140116 -0.04987022
000250 41 e1 ed 3d 2a 4f a3 bd 75 02 aa 3d e6 4c 04 bd
       0.116152294 -0.07974084 0.0830125 -0.0322999
000260 15 ef 09 be c6 af 91 3d 89 75 ba 3d a0 78 25 bd
       -0.13470109 0.07113604 0.09104449 -0.04039824
000270 f4 5a 36 bd d7 63 27 3d e5 3c 0f be 11 33 a0 3d
       -0.044520333 0.0408667 -0.13988073 0.0782224
000280 2c 2c 57 bc 4c 6b 1f 3d ac 41 8c bd be ed 27 bd
       -0.01313309 0.038920686 -0.068484634 -0.040998213
000290 bc dd 3b 3c 7b 60 21 3c 7c f8 e9 bc fb 27 4f 3d
       0.01146644 0.009849663 -0.02856087 0.050575238
0002a0 14 7a bb 3c 8b 47 0a 3e d2 52 95 bd b1 b5 b3 bc
       0.02288536 0.13503854 -0.07291187 -0.021937223
0002b0 a5 05 b0 bb a5 8a 96 3d 37 3f aa 3d bc 29 b3 3d
       -0.0053717666 0.07350663 0.083128385 0.087481946
0002c0 8c 0f 24 bd 1d 09 db ba 6c b8 23 bd ad 05 d3 bd
       -0.04005389 -0.001671109 -0.0399708 -0.10303817
0002d0 db 75 c6 bd d5 a8 14 3a 0a 6a 32 3d b0 20 5b bd
       -0.09690448 0.000567091 0.043558158 -0.05349797
0002e0 b7 79 88 3d fe fc 2b be 30 e0 ab 3c 4a 98 42 3d
       0.0666384 -0.16795728 0.020980924 0.047508515
0002f0 28 a6 09 be 40 1e 26 3d b8 09 fb 3c 04 bd 80 bc
       -0.1344229 0.040556192 0.030644283 -0.01571513
000300 72 4b 80 bd 69 cf b5 bc 49 39 4d be 15 2f cc 3c
       -0.0626439 -0.022193627 -0.20041384 0.024924794
000310 44 be 5d bd eb df 23 be a4 a9 94 bd e4 18 83 bd
       -0.05413653 -0.16003387 -0.07258919 -0.06401232
000320 84 eb 79 bd 7c 3d 9f bd 6f 5b 35 3c e1 aa 7d be
       -0.06101562 -0.07775399 0.011069163 -0.24772216
000330 e8 46 28 3d df 87 a3 bd fb cb 3c be c7 68 f1 3c
       0.041083246 -0.079849 -0.18437187 0.029468907
000340 b3 e2 87 bc 42 8f 87 3c 84 4b 8e bd e7 da 25 bd
       -0.01658759 0.016547803 -0.06947997 -0.040491965
000350 4a 7e 23 be f6 cd c0 3d 8b 68 88 3d c0 ad 21 be
       -0.15966144 0.09414284 0.06660565 -0.15788937
000360 60 c6 a4 3d 53 46 81 bc b0 04 dd 3c 38 de cd bd
       0.080456495 -0.015780604 0.026979774 -0.100521505
000370 0a df 5c bc cf 61 4d be 4c 24 7c 3d 36 59 e6 bd
       -0.013480911 -0.20056842 0.061558053 -0.112474844
000380 8d c7 87 bd 88 ed d8 bd 08 d7 07 3d e4 ac 9e 3d
       -0.06629858 -0.105921805 0.033164054 0.0774782
000390 2c bc a6 3c 37 8e 0f 3e e1 7d 16 bd 80 b4 3b bb
       0.0203534 0.14019094 -0.03674114 -0.0028641522
0003a0 6a 23 c1 3d d0 e2 0a 3d ed 4b fc 3c 22 86 cd 3d
       0.09430583 0.03390771 0.030797923 0.100353494
0003b0 26 fb 8d be 88 a8 68 3c dc 07 8b 3c 1c 35 57 3d
       -0.27730674 0.014200337 0.016971521 0.052540883
0003c0 a1 4f a7 3d 27 11 7d 3d b1 38 83 3d 1e 3d ac bd
       0.08169485 0.061783936 0.064072974 -0.08410095
0003d0 1d 00 12 bd 56 45 03 be a0 a4 4f bd 19 66 11 be
       -0.03564464 -0.12819418 -0.050694108 -0.14199103
0003e0 2a 76 6b be 5a d4 4e 3d 27 a4 e6 bd 63 27 19 be
       -0.22994295 0.050495483 -0.11261778 -0.14956431
0003f0 b3 b4 af bd d5 81 89 bd c4 40 56 be 54 83 52 bd
       -0.085793875 -0.067142166 -0.20923144 -0.051394776

convs.7.bias f4 [16]
000000 96 a7 a6 3d b3 71 a7 3d fd ac 1a bd 2a 02 4e 3e
       0.08137433 0.08175983 -0.03776263 0.20118013
000010 3b b1 15 bd 1e c9 99 bc e9 b0 f7 3b f4 50 71 bd
       -0.036545973 -0.018772658 0.007558931 -0.058915094
000020 eb 45 a1 3d aa 6c 9d bc 56 45 89 bd 0c 7e ec bd
       0.07874664 -0.019216854 -0.06702678 -0.11547479
000030 2e 8f 8d bd 87 c0 3a 3d fc cc 00 bd 26 7f c1 3c
       -0.06912075 0.045593765 -0.03144549 0.0236202
